<?xml version="1.0"?>
<net name="text-detection-0003" version="6" batch="1">
	<layers>
		<layer name="Placeholder" type="Input" precision="FP32" id="0">
			<output>
				<port id="0">
					<dim>1</dim>
					<dim>3</dim>
					<dim>768</dim>
					<dim>1280</dim>
				</port>
			</output>
		</layer>
		<layer name="Mul1_8714/Fused_Mul_/FusedScaleShift_" type="ScaleShift" precision="FP32" id="1">
			<data broadcast="0" />
			<input>
				<port id="0">
					<dim>1</dim>
					<dim>3</dim>
					<dim>768</dim>
					<dim>1280</dim>
				</port>
			</input>
			<output>
				<port id="1">
					<dim>1</dim>
					<dim>3</dim>
					<dim>768</dim>
					<dim>1280</dim>
				</port>
			</output>
			<blobs>
				<biases offset="0" size="12" />
				<weights offset="12" size="12" />
			</blobs>
		</layer>
		<layer name="model/conv2d/Conv2D" type="Convolution" precision="FP32" id="2">
			<data auto_pad="same_upper" dilations="1,1" group="1" kernel="3,3" output="32" pads_begin="0,0" pads_end="1,1" quantization_level="I8" strides="2,2" />
			<input>
				<port id="0">
					<dim>1</dim>
					<dim>3</dim>
					<dim>768</dim>
					<dim>1280</dim>
				</port>
			</input>
			<output>
				<port id="1">
					<dim>1</dim>
					<dim>32</dim>
					<dim>384</dim>
					<dim>640</dim>
				</port>
			</output>
			<blobs>
				<biases offset="24" size="128" />
				<weights offset="152" size="3456" />
			</blobs>
		</layer>
		<layer name="model/re_lu/Relu6" type="Clamp" precision="FP32" id="3">
			<data max="6.000000" min="0.000000" />
			<input>
				<port id="0">
					<dim>1</dim>
					<dim>32</dim>
					<dim>384</dim>
					<dim>640</dim>
				</port>
			</input>
			<output>
				<port id="1">
					<dim>1</dim>
					<dim>32</dim>
					<dim>384</dim>
					<dim>640</dim>
				</port>
			</output>
		</layer>
		<layer name="model/conv2d_1/Conv2D" type="Convolution" precision="FP32" id="4">
			<data auto_pad="same_upper" dilations="1,1" group="1" kernel="1,1" output="32" pads_begin="0,0" pads_end="0,0" quantization_level="I8" strides="1,1" />
			<input>
				<port id="0">
					<dim>1</dim>
					<dim>32</dim>
					<dim>384</dim>
					<dim>640</dim>
				</port>
			</input>
			<output>
				<port id="1">
					<dim>1</dim>
					<dim>32</dim>
					<dim>384</dim>
					<dim>640</dim>
				</port>
			</output>
			<blobs>
				<biases offset="3608" size="128" />
				<weights offset="3736" size="4096" />
			</blobs>
		</layer>
		<layer name="model/re_lu_1/Relu6" type="Clamp" precision="FP32" id="5">
			<data max="6.000000" min="0.000000" />
			<input>
				<port id="0">
					<dim>1</dim>
					<dim>32</dim>
					<dim>384</dim>
					<dim>640</dim>
				</port>
			</input>
			<output>
				<port id="1">
					<dim>1</dim>
					<dim>32</dim>
					<dim>384</dim>
					<dim>640</dim>
				</port>
			</output>
		</layer>
		<layer name="model/separable_conv2d/separable_conv2d/depthwise" type="Convolution" precision="FP32" id="6">
			<data auto_pad="same_upper" dilations="1,1" group="32" kernel="3,3" output="32" pads_begin="1,1" pads_end="1,1" quantization_level="I8" strides="1,1" />
			<input>
				<port id="0">
					<dim>1</dim>
					<dim>32</dim>
					<dim>384</dim>
					<dim>640</dim>
				</port>
			</input>
			<output>
				<port id="1">
					<dim>1</dim>
					<dim>32</dim>
					<dim>384</dim>
					<dim>640</dim>
				</port>
			</output>
			<blobs>
				<weights offset="7832" size="1152" />
			</blobs>
		</layer>
		<layer name="model/separable_conv2d/separable_conv2d" type="Convolution" precision="FP32" id="7">
			<data auto_pad="valid" dilations="1,1" group="1" kernel="1,1" output="32" pads_begin="0,0" pads_end="0,0" quantization_level="I8" strides="1,1" />
			<input>
				<port id="0">
					<dim>1</dim>
					<dim>32</dim>
					<dim>384</dim>
					<dim>640</dim>
				</port>
			</input>
			<output>
				<port id="1">
					<dim>1</dim>
					<dim>32</dim>
					<dim>384</dim>
					<dim>640</dim>
				</port>
			</output>
			<blobs>
				<biases offset="8984" size="128" />
				<weights offset="9112" size="4096" />
			</blobs>
		</layer>
		<layer name="model/re_lu_2/Relu6" type="Clamp" precision="FP32" id="8">
			<data max="6.000000" min="0.000000" />
			<input>
				<port id="0">
					<dim>1</dim>
					<dim>32</dim>
					<dim>384</dim>
					<dim>640</dim>
				</port>
			</input>
			<output>
				<port id="1">
					<dim>1</dim>
					<dim>32</dim>
					<dim>384</dim>
					<dim>640</dim>
				</port>
			</output>
		</layer>
		<layer name="model/conv2d_2/Conv2D" type="Convolution" precision="FP32" id="9">
			<data auto_pad="same_upper" dilations="1,1" group="1" kernel="1,1" output="16" pads_begin="0,0" pads_end="0,0" quantization_level="I8" strides="1,1" />
			<input>
				<port id="0">
					<dim>1</dim>
					<dim>32</dim>
					<dim>384</dim>
					<dim>640</dim>
				</port>
			</input>
			<output>
				<port id="1">
					<dim>1</dim>
					<dim>16</dim>
					<dim>384</dim>
					<dim>640</dim>
				</port>
			</output>
			<blobs>
				<biases offset="13208" size="64" />
				<weights offset="13272" size="2048" />
			</blobs>
		</layer>
		<layer name="model/conv2d_3/Conv2D" type="Convolution" precision="FP32" id="10">
			<data auto_pad="same_upper" dilations="1,1" group="1" kernel="1,1" output="96" pads_begin="0,0" pads_end="0,0" quantization_level="I8" strides="1,1" />
			<input>
				<port id="0">
					<dim>1</dim>
					<dim>16</dim>
					<dim>384</dim>
					<dim>640</dim>
				</port>
			</input>
			<output>
				<port id="1">
					<dim>1</dim>
					<dim>96</dim>
					<dim>384</dim>
					<dim>640</dim>
				</port>
			</output>
			<blobs>
				<biases offset="15320" size="384" />
				<weights offset="15704" size="6144" />
			</blobs>
		</layer>
		<layer name="model/re_lu_3/Relu6" type="Clamp" precision="FP32" id="11">
			<data max="6.000000" min="0.000000" />
			<input>
				<port id="0">
					<dim>1</dim>
					<dim>96</dim>
					<dim>384</dim>
					<dim>640</dim>
				</port>
			</input>
			<output>
				<port id="1">
					<dim>1</dim>
					<dim>96</dim>
					<dim>384</dim>
					<dim>640</dim>
				</port>
			</output>
		</layer>
		<layer name="model/separable_conv2d_1/separable_conv2d/depthwise" type="Convolution" precision="FP32" id="12">
			<data auto_pad="same_upper" dilations="1,1" group="96" kernel="3,3" output="96" pads_begin="0,0" pads_end="1,1" quantization_level="I8" strides="2,2" />
			<input>
				<port id="0">
					<dim>1</dim>
					<dim>96</dim>
					<dim>384</dim>
					<dim>640</dim>
				</port>
			</input>
			<output>
				<port id="1">
					<dim>1</dim>
					<dim>96</dim>
					<dim>192</dim>
					<dim>320</dim>
				</port>
			</output>
			<blobs>
				<weights offset="21848" size="3456" />
			</blobs>
		</layer>
		<layer name="model/separable_conv2d_1/separable_conv2d" type="Convolution" precision="FP32" id="13">
			<data auto_pad="valid" dilations="1,1" group="1" kernel="1,1" output="96" pads_begin="0,0" pads_end="0,0" quantization_level="I8" strides="1,1" />
			<input>
				<port id="0">
					<dim>1</dim>
					<dim>96</dim>
					<dim>192</dim>
					<dim>320</dim>
				</port>
			</input>
			<output>
				<port id="1">
					<dim>1</dim>
					<dim>96</dim>
					<dim>192</dim>
					<dim>320</dim>
				</port>
			</output>
			<blobs>
				<biases offset="25304" size="384" />
				<weights offset="25688" size="36864" />
			</blobs>
		</layer>
		<layer name="model/re_lu_4/Relu6" type="Clamp" precision="FP32" id="14">
			<data max="6.000000" min="0.000000" />
			<input>
				<port id="0">
					<dim>1</dim>
					<dim>96</dim>
					<dim>192</dim>
					<dim>320</dim>
				</port>
			</input>
			<output>
				<port id="1">
					<dim>1</dim>
					<dim>96</dim>
					<dim>192</dim>
					<dim>320</dim>
				</port>
			</output>
		</layer>
		<layer name="model/conv2d_4/Conv2D" type="Convolution" precision="FP32" id="15">
			<data auto_pad="same_upper" dilations="1,1" group="1" kernel="1,1" output="24" pads_begin="0,0" pads_end="0,0" quantization_level="I8" strides="1,1" />
			<input>
				<port id="0">
					<dim>1</dim>
					<dim>96</dim>
					<dim>192</dim>
					<dim>320</dim>
				</port>
			</input>
			<output>
				<port id="1">
					<dim>1</dim>
					<dim>24</dim>
					<dim>192</dim>
					<dim>320</dim>
				</port>
			</output>
			<blobs>
				<biases offset="62552" size="96" />
				<weights offset="62648" size="9216" />
			</blobs>
		</layer>
		<layer name="model/conv2d_5/Conv2D" type="Convolution" precision="FP32" id="16">
			<data auto_pad="same_upper" dilations="1,1" group="1" kernel="1,1" output="144" pads_begin="0,0" pads_end="0,0" quantization_level="I8" strides="1,1" />
			<input>
				<port id="0">
					<dim>1</dim>
					<dim>24</dim>
					<dim>192</dim>
					<dim>320</dim>
				</port>
			</input>
			<output>
				<port id="1">
					<dim>1</dim>
					<dim>144</dim>
					<dim>192</dim>
					<dim>320</dim>
				</port>
			</output>
			<blobs>
				<biases offset="71864" size="576" />
				<weights offset="72440" size="13824" />
			</blobs>
		</layer>
		<layer name="model/re_lu_5/Relu6" type="Clamp" precision="FP32" id="17">
			<data max="6.000000" min="0.000000" />
			<input>
				<port id="0">
					<dim>1</dim>
					<dim>144</dim>
					<dim>192</dim>
					<dim>320</dim>
				</port>
			</input>
			<output>
				<port id="1">
					<dim>1</dim>
					<dim>144</dim>
					<dim>192</dim>
					<dim>320</dim>
				</port>
			</output>
		</layer>
		<layer name="model/separable_conv2d_2/separable_conv2d/depthwise" type="Convolution" precision="FP32" id="18">
			<data auto_pad="same_upper" dilations="1,1" group="144" kernel="3,3" output="144" pads_begin="1,1" pads_end="1,1" quantization_level="I8" strides="1,1" />
			<input>
				<port id="0">
					<dim>1</dim>
					<dim>144</dim>
					<dim>192</dim>
					<dim>320</dim>
				</port>
			</input>
			<output>
				<port id="1">
					<dim>1</dim>
					<dim>144</dim>
					<dim>192</dim>
					<dim>320</dim>
				</port>
			</output>
			<blobs>
				<weights offset="86264" size="5184" />
			</blobs>
		</layer>
		<layer name="model/separable_conv2d_2/separable_conv2d" type="Convolution" precision="FP32" id="19">
			<data auto_pad="valid" dilations="1,1" group="1" kernel="1,1" output="144" pads_begin="0,0" pads_end="0,0" quantization_level="I8" strides="1,1" />
			<input>
				<port id="0">
					<dim>1</dim>
					<dim>144</dim>
					<dim>192</dim>
					<dim>320</dim>
				</port>
			</input>
			<output>
				<port id="1">
					<dim>1</dim>
					<dim>144</dim>
					<dim>192</dim>
					<dim>320</dim>
				</port>
			</output>
			<blobs>
				<biases offset="91448" size="576" />
				<weights offset="92024" size="82944" />
			</blobs>
		</layer>
		<layer name="model/re_lu_6/Relu6" type="Clamp" precision="FP32" id="20">
			<data max="6.000000" min="0.000000" />
			<input>
				<port id="0">
					<dim>1</dim>
					<dim>144</dim>
					<dim>192</dim>
					<dim>320</dim>
				</port>
			</input>
			<output>
				<port id="1">
					<dim>1</dim>
					<dim>144</dim>
					<dim>192</dim>
					<dim>320</dim>
				</port>
			</output>
		</layer>
		<layer name="model/conv2d_6/Conv2D" type="Convolution" precision="FP32" id="21">
			<data auto_pad="same_upper" dilations="1,1" group="1" kernel="1,1" output="24" pads_begin="0,0" pads_end="0,0" quantization_level="I8" strides="1,1" />
			<input>
				<port id="0">
					<dim>1</dim>
					<dim>144</dim>
					<dim>192</dim>
					<dim>320</dim>
				</port>
			</input>
			<output>
				<port id="1">
					<dim>1</dim>
					<dim>24</dim>
					<dim>192</dim>
					<dim>320</dim>
				</port>
			</output>
			<blobs>
				<biases offset="174968" size="96" />
				<weights offset="175064" size="13824" />
			</blobs>
		</layer>
		<layer name="model/add/add" type="Eltwise" precision="FP32" id="22">
			<data operation="sum" />
			<input>
				<port id="0">
					<dim>1</dim>
					<dim>24</dim>
					<dim>192</dim>
					<dim>320</dim>
				</port>
				<port id="1">
					<dim>1</dim>
					<dim>24</dim>
					<dim>192</dim>
					<dim>320</dim>
				</port>
			</input>
			<output>
				<port id="2">
					<dim>1</dim>
					<dim>24</dim>
					<dim>192</dim>
					<dim>320</dim>
				</port>
			</output>
		</layer>
		<layer name="model/conv2d_7/Conv2D" type="Convolution" precision="FP32" id="23">
			<data auto_pad="same_upper" dilations="1,1" group="1" kernel="1,1" output="144" pads_begin="0,0" pads_end="0,0" quantization_level="I8" strides="1,1" />
			<input>
				<port id="0">
					<dim>1</dim>
					<dim>24</dim>
					<dim>192</dim>
					<dim>320</dim>
				</port>
			</input>
			<output>
				<port id="1">
					<dim>1</dim>
					<dim>144</dim>
					<dim>192</dim>
					<dim>320</dim>
				</port>
			</output>
			<blobs>
				<biases offset="188888" size="576" />
				<weights offset="189464" size="13824" />
			</blobs>
		</layer>
		<layer name="model/re_lu_7/Relu6" type="Clamp" precision="FP32" id="24">
			<data max="6.000000" min="0.000000" />
			<input>
				<port id="0">
					<dim>1</dim>
					<dim>144</dim>
					<dim>192</dim>
					<dim>320</dim>
				</port>
			</input>
			<output>
				<port id="1">
					<dim>1</dim>
					<dim>144</dim>
					<dim>192</dim>
					<dim>320</dim>
				</port>
			</output>
		</layer>
		<layer name="model/separable_conv2d_3/separable_conv2d/depthwise" type="Convolution" precision="FP32" id="25">
			<data auto_pad="same_upper" dilations="1,1" group="144" kernel="3,3" output="144" pads_begin="0,0" pads_end="1,1" quantization_level="I8" strides="2,2" />
			<input>
				<port id="0">
					<dim>1</dim>
					<dim>144</dim>
					<dim>192</dim>
					<dim>320</dim>
				</port>
			</input>
			<output>
				<port id="1">
					<dim>1</dim>
					<dim>144</dim>
					<dim>96</dim>
					<dim>160</dim>
				</port>
			</output>
			<blobs>
				<weights offset="203288" size="5184" />
			</blobs>
		</layer>
		<layer name="model/separable_conv2d_3/separable_conv2d" type="Convolution" precision="FP32" id="26">
			<data auto_pad="valid" dilations="1,1" group="1" kernel="1,1" output="144" pads_begin="0,0" pads_end="0,0" quantization_level="I8" strides="1,1" />
			<input>
				<port id="0">
					<dim>1</dim>
					<dim>144</dim>
					<dim>96</dim>
					<dim>160</dim>
				</port>
			</input>
			<output>
				<port id="1">
					<dim>1</dim>
					<dim>144</dim>
					<dim>96</dim>
					<dim>160</dim>
				</port>
			</output>
			<blobs>
				<biases offset="208472" size="576" />
				<weights offset="209048" size="82944" />
			</blobs>
		</layer>
		<layer name="model/re_lu_8/Relu6" type="Clamp" precision="FP32" id="27">
			<data max="6.000000" min="0.000000" />
			<input>
				<port id="0">
					<dim>1</dim>
					<dim>144</dim>
					<dim>96</dim>
					<dim>160</dim>
				</port>
			</input>
			<output>
				<port id="1">
					<dim>1</dim>
					<dim>144</dim>
					<dim>96</dim>
					<dim>160</dim>
				</port>
			</output>
		</layer>
		<layer name="model/conv2d_8/Conv2D" type="Convolution" precision="FP32" id="28">
			<data auto_pad="same_upper" dilations="1,1" group="1" kernel="1,1" output="32" pads_begin="0,0" pads_end="0,0" quantization_level="I8" strides="1,1" />
			<input>
				<port id="0">
					<dim>1</dim>
					<dim>144</dim>
					<dim>96</dim>
					<dim>160</dim>
				</port>
			</input>
			<output>
				<port id="1">
					<dim>1</dim>
					<dim>32</dim>
					<dim>96</dim>
					<dim>160</dim>
				</port>
			</output>
			<blobs>
				<biases offset="291992" size="128" />
				<weights offset="292120" size="18432" />
			</blobs>
		</layer>
		<layer name="model/conv2d_9/Conv2D" type="Convolution" precision="FP32" id="29">
			<data auto_pad="same_upper" dilations="1,1" group="1" kernel="1,1" output="192" pads_begin="0,0" pads_end="0,0" quantization_level="I8" strides="1,1" />
			<input>
				<port id="0">
					<dim>1</dim>
					<dim>32</dim>
					<dim>96</dim>
					<dim>160</dim>
				</port>
			</input>
			<output>
				<port id="1">
					<dim>1</dim>
					<dim>192</dim>
					<dim>96</dim>
					<dim>160</dim>
				</port>
			</output>
			<blobs>
				<biases offset="310552" size="768" />
				<weights offset="311320" size="24576" />
			</blobs>
		</layer>
		<layer name="model/re_lu_9/Relu6" type="Clamp" precision="FP32" id="30">
			<data max="6.000000" min="0.000000" />
			<input>
				<port id="0">
					<dim>1</dim>
					<dim>192</dim>
					<dim>96</dim>
					<dim>160</dim>
				</port>
			</input>
			<output>
				<port id="1">
					<dim>1</dim>
					<dim>192</dim>
					<dim>96</dim>
					<dim>160</dim>
				</port>
			</output>
		</layer>
		<layer name="model/separable_conv2d_4/separable_conv2d/depthwise" type="Convolution" precision="FP32" id="31">
			<data auto_pad="same_upper" dilations="1,1" group="192" kernel="3,3" output="192" pads_begin="1,1" pads_end="1,1" quantization_level="I8" strides="1,1" />
			<input>
				<port id="0">
					<dim>1</dim>
					<dim>192</dim>
					<dim>96</dim>
					<dim>160</dim>
				</port>
			</input>
			<output>
				<port id="1">
					<dim>1</dim>
					<dim>192</dim>
					<dim>96</dim>
					<dim>160</dim>
				</port>
			</output>
			<blobs>
				<weights offset="335896" size="6912" />
			</blobs>
		</layer>
		<layer name="model/separable_conv2d_4/separable_conv2d" type="Convolution" precision="FP32" id="32">
			<data auto_pad="valid" dilations="1,1" group="1" kernel="1,1" output="192" pads_begin="0,0" pads_end="0,0" quantization_level="I8" strides="1,1" />
			<input>
				<port id="0">
					<dim>1</dim>
					<dim>192</dim>
					<dim>96</dim>
					<dim>160</dim>
				</port>
			</input>
			<output>
				<port id="1">
					<dim>1</dim>
					<dim>192</dim>
					<dim>96</dim>
					<dim>160</dim>
				</port>
			</output>
			<blobs>
				<biases offset="342808" size="768" />
				<weights offset="343576" size="147456" />
			</blobs>
		</layer>
		<layer name="model/re_lu_10/Relu6" type="Clamp" precision="FP32" id="33">
			<data max="6.000000" min="0.000000" />
			<input>
				<port id="0">
					<dim>1</dim>
					<dim>192</dim>
					<dim>96</dim>
					<dim>160</dim>
				</port>
			</input>
			<output>
				<port id="1">
					<dim>1</dim>
					<dim>192</dim>
					<dim>96</dim>
					<dim>160</dim>
				</port>
			</output>
		</layer>
		<layer name="model/conv2d_10/Conv2D" type="Convolution" precision="FP32" id="34">
			<data auto_pad="same_upper" dilations="1,1" group="1" kernel="1,1" output="32" pads_begin="0,0" pads_end="0,0" quantization_level="I8" strides="1,1" />
			<input>
				<port id="0">
					<dim>1</dim>
					<dim>192</dim>
					<dim>96</dim>
					<dim>160</dim>
				</port>
			</input>
			<output>
				<port id="1">
					<dim>1</dim>
					<dim>32</dim>
					<dim>96</dim>
					<dim>160</dim>
				</port>
			</output>
			<blobs>
				<biases offset="491032" size="128" />
				<weights offset="491160" size="24576" />
			</blobs>
		</layer>
		<layer name="model/add_1/add" type="Eltwise" precision="FP32" id="35">
			<data operation="sum" />
			<input>
				<port id="0">
					<dim>1</dim>
					<dim>32</dim>
					<dim>96</dim>
					<dim>160</dim>
				</port>
				<port id="1">
					<dim>1</dim>
					<dim>32</dim>
					<dim>96</dim>
					<dim>160</dim>
				</port>
			</input>
			<output>
				<port id="2">
					<dim>1</dim>
					<dim>32</dim>
					<dim>96</dim>
					<dim>160</dim>
				</port>
			</output>
		</layer>
		<layer name="model/conv2d_11/Conv2D" type="Convolution" precision="FP32" id="36">
			<data auto_pad="same_upper" dilations="1,1" group="1" kernel="1,1" output="192" pads_begin="0,0" pads_end="0,0" quantization_level="I8" strides="1,1" />
			<input>
				<port id="0">
					<dim>1</dim>
					<dim>32</dim>
					<dim>96</dim>
					<dim>160</dim>
				</port>
			</input>
			<output>
				<port id="1">
					<dim>1</dim>
					<dim>192</dim>
					<dim>96</dim>
					<dim>160</dim>
				</port>
			</output>
			<blobs>
				<biases offset="515736" size="768" />
				<weights offset="516504" size="24576" />
			</blobs>
		</layer>
		<layer name="model/re_lu_11/Relu6" type="Clamp" precision="FP32" id="37">
			<data max="6.000000" min="0.000000" />
			<input>
				<port id="0">
					<dim>1</dim>
					<dim>192</dim>
					<dim>96</dim>
					<dim>160</dim>
				</port>
			</input>
			<output>
				<port id="1">
					<dim>1</dim>
					<dim>192</dim>
					<dim>96</dim>
					<dim>160</dim>
				</port>
			</output>
		</layer>
		<layer name="model/separable_conv2d_5/separable_conv2d/depthwise" type="Convolution" precision="FP32" id="38">
			<data auto_pad="same_upper" dilations="1,1" group="192" kernel="3,3" output="192" pads_begin="1,1" pads_end="1,1" quantization_level="I8" strides="1,1" />
			<input>
				<port id="0">
					<dim>1</dim>
					<dim>192</dim>
					<dim>96</dim>
					<dim>160</dim>
				</port>
			</input>
			<output>
				<port id="1">
					<dim>1</dim>
					<dim>192</dim>
					<dim>96</dim>
					<dim>160</dim>
				</port>
			</output>
			<blobs>
				<weights offset="541080" size="6912" />
			</blobs>
		</layer>
		<layer name="model/separable_conv2d_5/separable_conv2d" type="Convolution" precision="FP32" id="39">
			<data auto_pad="valid" dilations="1,1" group="1" kernel="1,1" output="192" pads_begin="0,0" pads_end="0,0" quantization_level="I8" strides="1,1" />
			<input>
				<port id="0">
					<dim>1</dim>
					<dim>192</dim>
					<dim>96</dim>
					<dim>160</dim>
				</port>
			</input>
			<output>
				<port id="1">
					<dim>1</dim>
					<dim>192</dim>
					<dim>96</dim>
					<dim>160</dim>
				</port>
			</output>
			<blobs>
				<biases offset="547992" size="768" />
				<weights offset="548760" size="147456" />
			</blobs>
		</layer>
		<layer name="model/re_lu_12/Relu6" type="Clamp" precision="FP32" id="40">
			<data max="6.000000" min="0.000000" />
			<input>
				<port id="0">
					<dim>1</dim>
					<dim>192</dim>
					<dim>96</dim>
					<dim>160</dim>
				</port>
			</input>
			<output>
				<port id="1">
					<dim>1</dim>
					<dim>192</dim>
					<dim>96</dim>
					<dim>160</dim>
				</port>
			</output>
		</layer>
		<layer name="model/conv2d_12/Conv2D" type="Convolution" precision="FP32" id="41">
			<data auto_pad="same_upper" dilations="1,1" group="1" kernel="1,1" output="32" pads_begin="0,0" pads_end="0,0" quantization_level="I8" strides="1,1" />
			<input>
				<port id="0">
					<dim>1</dim>
					<dim>192</dim>
					<dim>96</dim>
					<dim>160</dim>
				</port>
			</input>
			<output>
				<port id="1">
					<dim>1</dim>
					<dim>32</dim>
					<dim>96</dim>
					<dim>160</dim>
				</port>
			</output>
			<blobs>
				<biases offset="696216" size="128" />
				<weights offset="696344" size="24576" />
			</blobs>
		</layer>
		<layer name="model/add_2/add" type="Eltwise" precision="FP32" id="42">
			<data operation="sum" />
			<input>
				<port id="0">
					<dim>1</dim>
					<dim>32</dim>
					<dim>96</dim>
					<dim>160</dim>
				</port>
				<port id="1">
					<dim>1</dim>
					<dim>32</dim>
					<dim>96</dim>
					<dim>160</dim>
				</port>
			</input>
			<output>
				<port id="2">
					<dim>1</dim>
					<dim>32</dim>
					<dim>96</dim>
					<dim>160</dim>
				</port>
			</output>
		</layer>
		<layer name="model/conv2d_13/Conv2D" type="Convolution" precision="FP32" id="43">
			<data auto_pad="same_upper" dilations="1,1" group="1" kernel="1,1" output="192" pads_begin="0,0" pads_end="0,0" quantization_level="I8" strides="1,1" />
			<input>
				<port id="0">
					<dim>1</dim>
					<dim>32</dim>
					<dim>96</dim>
					<dim>160</dim>
				</port>
			</input>
			<output>
				<port id="1">
					<dim>1</dim>
					<dim>192</dim>
					<dim>96</dim>
					<dim>160</dim>
				</port>
			</output>
			<blobs>
				<biases offset="720920" size="768" />
				<weights offset="721688" size="24576" />
			</blobs>
		</layer>
		<layer name="model/re_lu_13/Relu6" type="Clamp" precision="FP32" id="44">
			<data max="6.000000" min="0.000000" />
			<input>
				<port id="0">
					<dim>1</dim>
					<dim>192</dim>
					<dim>96</dim>
					<dim>160</dim>
				</port>
			</input>
			<output>
				<port id="1">
					<dim>1</dim>
					<dim>192</dim>
					<dim>96</dim>
					<dim>160</dim>
				</port>
			</output>
		</layer>
		<layer name="model/separable_conv2d_6/separable_conv2d/depthwise" type="Convolution" precision="FP32" id="45">
			<data auto_pad="same_upper" dilations="1,1" group="192" kernel="3,3" output="192" pads_begin="1,1" pads_end="1,1" quantization_level="I8" strides="1,1" />
			<input>
				<port id="0">
					<dim>1</dim>
					<dim>192</dim>
					<dim>96</dim>
					<dim>160</dim>
				</port>
			</input>
			<output>
				<port id="1">
					<dim>1</dim>
					<dim>192</dim>
					<dim>96</dim>
					<dim>160</dim>
				</port>
			</output>
			<blobs>
				<weights offset="746264" size="6912" />
			</blobs>
		</layer>
		<layer name="model/separable_conv2d_6/separable_conv2d" type="Convolution" precision="FP32" id="46">
			<data auto_pad="valid" dilations="1,1" group="1" kernel="1,1" output="192" pads_begin="0,0" pads_end="0,0" quantization_level="I8" strides="1,1" />
			<input>
				<port id="0">
					<dim>1</dim>
					<dim>192</dim>
					<dim>96</dim>
					<dim>160</dim>
				</port>
			</input>
			<output>
				<port id="1">
					<dim>1</dim>
					<dim>192</dim>
					<dim>96</dim>
					<dim>160</dim>
				</port>
			</output>
			<blobs>
				<biases offset="753176" size="768" />
				<weights offset="753944" size="147456" />
			</blobs>
		</layer>
		<layer name="model/re_lu_14/Relu6" type="Clamp" precision="FP32" id="47">
			<data max="6.000000" min="0.000000" />
			<input>
				<port id="0">
					<dim>1</dim>
					<dim>192</dim>
					<dim>96</dim>
					<dim>160</dim>
				</port>
			</input>
			<output>
				<port id="1">
					<dim>1</dim>
					<dim>192</dim>
					<dim>96</dim>
					<dim>160</dim>
				</port>
			</output>
		</layer>
		<layer name="model/conv2d_14/Conv2D" type="Convolution" precision="FP32" id="48">
			<data auto_pad="same_upper" dilations="1,1" group="1" kernel="1,1" output="64" pads_begin="0,0" pads_end="0,0" quantization_level="I8" strides="1,1" />
			<input>
				<port id="0">
					<dim>1</dim>
					<dim>192</dim>
					<dim>96</dim>
					<dim>160</dim>
				</port>
			</input>
			<output>
				<port id="1">
					<dim>1</dim>
					<dim>64</dim>
					<dim>96</dim>
					<dim>160</dim>
				</port>
			</output>
			<blobs>
				<biases offset="901400" size="256" />
				<weights offset="901656" size="49152" />
			</blobs>
		</layer>
		<layer name="model/conv2d_15/Conv2D" type="Convolution" precision="FP32" id="49">
			<data auto_pad="same_upper" dilations="1,1" group="1" kernel="1,1" output="384" pads_begin="0,0" pads_end="0,0" quantization_level="I8" strides="1,1" />
			<input>
				<port id="0">
					<dim>1</dim>
					<dim>64</dim>
					<dim>96</dim>
					<dim>160</dim>
				</port>
			</input>
			<output>
				<port id="1">
					<dim>1</dim>
					<dim>384</dim>
					<dim>96</dim>
					<dim>160</dim>
				</port>
			</output>
			<blobs>
				<biases offset="950808" size="1536" />
				<weights offset="952344" size="98304" />
			</blobs>
		</layer>
		<layer name="model/re_lu_15/Relu6" type="Clamp" precision="FP32" id="50">
			<data max="6.000000" min="0.000000" />
			<input>
				<port id="0">
					<dim>1</dim>
					<dim>384</dim>
					<dim>96</dim>
					<dim>160</dim>
				</port>
			</input>
			<output>
				<port id="1">
					<dim>1</dim>
					<dim>384</dim>
					<dim>96</dim>
					<dim>160</dim>
				</port>
			</output>
		</layer>
		<layer name="model/separable_conv2d_7/separable_conv2d/depthwise" type="Convolution" precision="FP32" id="51">
			<data auto_pad="same_upper" dilations="1,1" group="384" kernel="3,3" output="384" pads_begin="1,1" pads_end="1,1" quantization_level="I8" strides="1,1" />
			<input>
				<port id="0">
					<dim>1</dim>
					<dim>384</dim>
					<dim>96</dim>
					<dim>160</dim>
				</port>
			</input>
			<output>
				<port id="1">
					<dim>1</dim>
					<dim>384</dim>
					<dim>96</dim>
					<dim>160</dim>
				</port>
			</output>
			<blobs>
				<weights offset="1050648" size="13824" />
			</blobs>
		</layer>
		<layer name="model/separable_conv2d_7/separable_conv2d" type="Convolution" precision="FP32" id="52">
			<data auto_pad="valid" dilations="1,1" group="1" kernel="1,1" output="384" pads_begin="0,0" pads_end="0,0" quantization_level="I8" strides="1,1" />
			<input>
				<port id="0">
					<dim>1</dim>
					<dim>384</dim>
					<dim>96</dim>
					<dim>160</dim>
				</port>
			</input>
			<output>
				<port id="1">
					<dim>1</dim>
					<dim>384</dim>
					<dim>96</dim>
					<dim>160</dim>
				</port>
			</output>
			<blobs>
				<biases offset="1064472" size="1536" />
				<weights offset="1066008" size="589824" />
			</blobs>
		</layer>
		<layer name="model/re_lu_16/Relu6" type="Clamp" precision="FP32" id="53">
			<data max="6.000000" min="0.000000" />
			<input>
				<port id="0">
					<dim>1</dim>
					<dim>384</dim>
					<dim>96</dim>
					<dim>160</dim>
				</port>
			</input>
			<output>
				<port id="1">
					<dim>1</dim>
					<dim>384</dim>
					<dim>96</dim>
					<dim>160</dim>
				</port>
			</output>
		</layer>
		<layer name="model/conv2d_16/Conv2D" type="Convolution" precision="FP32" id="54">
			<data auto_pad="same_upper" dilations="1,1" group="1" kernel="1,1" output="64" pads_begin="0,0" pads_end="0,0" quantization_level="I8" strides="1,1" />
			<input>
				<port id="0">
					<dim>1</dim>
					<dim>384</dim>
					<dim>96</dim>
					<dim>160</dim>
				</port>
			</input>
			<output>
				<port id="1">
					<dim>1</dim>
					<dim>64</dim>
					<dim>96</dim>
					<dim>160</dim>
				</port>
			</output>
			<blobs>
				<biases offset="1655832" size="256" />
				<weights offset="1656088" size="98304" />
			</blobs>
		</layer>
		<layer name="model/add_3/add" type="Eltwise" precision="FP32" id="55">
			<data operation="sum" />
			<input>
				<port id="0">
					<dim>1</dim>
					<dim>64</dim>
					<dim>96</dim>
					<dim>160</dim>
				</port>
				<port id="1">
					<dim>1</dim>
					<dim>64</dim>
					<dim>96</dim>
					<dim>160</dim>
				</port>
			</input>
			<output>
				<port id="2">
					<dim>1</dim>
					<dim>64</dim>
					<dim>96</dim>
					<dim>160</dim>
				</port>
			</output>
		</layer>
		<layer name="model/conv2d_17/Conv2D" type="Convolution" precision="FP32" id="56">
			<data auto_pad="same_upper" dilations="1,1" group="1" kernel="1,1" output="384" pads_begin="0,0" pads_end="0,0" quantization_level="I8" strides="1,1" />
			<input>
				<port id="0">
					<dim>1</dim>
					<dim>64</dim>
					<dim>96</dim>
					<dim>160</dim>
				</port>
			</input>
			<output>
				<port id="1">
					<dim>1</dim>
					<dim>384</dim>
					<dim>96</dim>
					<dim>160</dim>
				</port>
			</output>
			<blobs>
				<biases offset="1754392" size="1536" />
				<weights offset="1755928" size="98304" />
			</blobs>
		</layer>
		<layer name="model/re_lu_17/Relu6" type="Clamp" precision="FP32" id="57">
			<data max="6.000000" min="0.000000" />
			<input>
				<port id="0">
					<dim>1</dim>
					<dim>384</dim>
					<dim>96</dim>
					<dim>160</dim>
				</port>
			</input>
			<output>
				<port id="1">
					<dim>1</dim>
					<dim>384</dim>
					<dim>96</dim>
					<dim>160</dim>
				</port>
			</output>
		</layer>
		<layer name="model/separable_conv2d_8/separable_conv2d/depthwise" type="Convolution" precision="FP32" id="58">
			<data auto_pad="same_upper" dilations="1,1" group="384" kernel="3,3" output="384" pads_begin="1,1" pads_end="1,1" quantization_level="I8" strides="1,1" />
			<input>
				<port id="0">
					<dim>1</dim>
					<dim>384</dim>
					<dim>96</dim>
					<dim>160</dim>
				</port>
			</input>
			<output>
				<port id="1">
					<dim>1</dim>
					<dim>384</dim>
					<dim>96</dim>
					<dim>160</dim>
				</port>
			</output>
			<blobs>
				<weights offset="1854232" size="13824" />
			</blobs>
		</layer>
		<layer name="model/separable_conv2d_8/separable_conv2d" type="Convolution" precision="FP32" id="59">
			<data auto_pad="valid" dilations="1,1" group="1" kernel="1,1" output="384" pads_begin="0,0" pads_end="0,0" quantization_level="I8" strides="1,1" />
			<input>
				<port id="0">
					<dim>1</dim>
					<dim>384</dim>
					<dim>96</dim>
					<dim>160</dim>
				</port>
			</input>
			<output>
				<port id="1">
					<dim>1</dim>
					<dim>384</dim>
					<dim>96</dim>
					<dim>160</dim>
				</port>
			</output>
			<blobs>
				<biases offset="1868056" size="1536" />
				<weights offset="1869592" size="589824" />
			</blobs>
		</layer>
		<layer name="model/re_lu_18/Relu6" type="Clamp" precision="FP32" id="60">
			<data max="6.000000" min="0.000000" />
			<input>
				<port id="0">
					<dim>1</dim>
					<dim>384</dim>
					<dim>96</dim>
					<dim>160</dim>
				</port>
			</input>
			<output>
				<port id="1">
					<dim>1</dim>
					<dim>384</dim>
					<dim>96</dim>
					<dim>160</dim>
				</port>
			</output>
		</layer>
		<layer name="model/conv2d_18/Conv2D" type="Convolution" precision="FP32" id="61">
			<data auto_pad="same_upper" dilations="1,1" group="1" kernel="1,1" output="64" pads_begin="0,0" pads_end="0,0" quantization_level="I8" strides="1,1" />
			<input>
				<port id="0">
					<dim>1</dim>
					<dim>384</dim>
					<dim>96</dim>
					<dim>160</dim>
				</port>
			</input>
			<output>
				<port id="1">
					<dim>1</dim>
					<dim>64</dim>
					<dim>96</dim>
					<dim>160</dim>
				</port>
			</output>
			<blobs>
				<biases offset="2459416" size="256" />
				<weights offset="2459672" size="98304" />
			</blobs>
		</layer>
		<layer name="model/add_4/add" type="Eltwise" precision="FP32" id="62">
			<data operation="sum" />
			<input>
				<port id="0">
					<dim>1</dim>
					<dim>64</dim>
					<dim>96</dim>
					<dim>160</dim>
				</port>
				<port id="1">
					<dim>1</dim>
					<dim>64</dim>
					<dim>96</dim>
					<dim>160</dim>
				</port>
			</input>
			<output>
				<port id="2">
					<dim>1</dim>
					<dim>64</dim>
					<dim>96</dim>
					<dim>160</dim>
				</port>
			</output>
		</layer>
		<layer name="model/conv2d_19/Conv2D" type="Convolution" precision="FP32" id="63">
			<data auto_pad="same_upper" dilations="1,1" group="1" kernel="1,1" output="384" pads_begin="0,0" pads_end="0,0" quantization_level="I8" strides="1,1" />
			<input>
				<port id="0">
					<dim>1</dim>
					<dim>64</dim>
					<dim>96</dim>
					<dim>160</dim>
				</port>
			</input>
			<output>
				<port id="1">
					<dim>1</dim>
					<dim>384</dim>
					<dim>96</dim>
					<dim>160</dim>
				</port>
			</output>
			<blobs>
				<biases offset="2557976" size="1536" />
				<weights offset="2559512" size="98304" />
			</blobs>
		</layer>
		<layer name="model/re_lu_19/Relu6" type="Clamp" precision="FP32" id="64">
			<data max="6.000000" min="0.000000" />
			<input>
				<port id="0">
					<dim>1</dim>
					<dim>384</dim>
					<dim>96</dim>
					<dim>160</dim>
				</port>
			</input>
			<output>
				<port id="1">
					<dim>1</dim>
					<dim>384</dim>
					<dim>96</dim>
					<dim>160</dim>
				</port>
			</output>
		</layer>
		<layer name="model/separable_conv2d_9/separable_conv2d/depthwise" type="Convolution" precision="FP32" id="65">
			<data auto_pad="same_upper" dilations="1,1" group="384" kernel="3,3" output="384" pads_begin="1,1" pads_end="1,1" quantization_level="I8" strides="1,1" />
			<input>
				<port id="0">
					<dim>1</dim>
					<dim>384</dim>
					<dim>96</dim>
					<dim>160</dim>
				</port>
			</input>
			<output>
				<port id="1">
					<dim>1</dim>
					<dim>384</dim>
					<dim>96</dim>
					<dim>160</dim>
				</port>
			</output>
			<blobs>
				<weights offset="2657816" size="13824" />
			</blobs>
		</layer>
		<layer name="model/separable_conv2d_9/separable_conv2d" type="Convolution" precision="FP32" id="66">
			<data auto_pad="valid" dilations="1,1" group="1" kernel="1,1" output="384" pads_begin="0,0" pads_end="0,0" quantization_level="I8" strides="1,1" />
			<input>
				<port id="0">
					<dim>1</dim>
					<dim>384</dim>
					<dim>96</dim>
					<dim>160</dim>
				</port>
			</input>
			<output>
				<port id="1">
					<dim>1</dim>
					<dim>384</dim>
					<dim>96</dim>
					<dim>160</dim>
				</port>
			</output>
			<blobs>
				<biases offset="2671640" size="1536" />
				<weights offset="2673176" size="589824" />
			</blobs>
		</layer>
		<layer name="model/re_lu_20/Relu6" type="Clamp" precision="FP32" id="67">
			<data max="6.000000" min="0.000000" />
			<input>
				<port id="0">
					<dim>1</dim>
					<dim>384</dim>
					<dim>96</dim>
					<dim>160</dim>
				</port>
			</input>
			<output>
				<port id="1">
					<dim>1</dim>
					<dim>384</dim>
					<dim>96</dim>
					<dim>160</dim>
				</port>
			</output>
		</layer>
		<layer name="model/conv2d_20/Conv2D" type="Convolution" precision="FP32" id="68">
			<data auto_pad="same_upper" dilations="1,1" group="1" kernel="1,1" output="64" pads_begin="0,0" pads_end="0,0" quantization_level="I8" strides="1,1" />
			<input>
				<port id="0">
					<dim>1</dim>
					<dim>384</dim>
					<dim>96</dim>
					<dim>160</dim>
				</port>
			</input>
			<output>
				<port id="1">
					<dim>1</dim>
					<dim>64</dim>
					<dim>96</dim>
					<dim>160</dim>
				</port>
			</output>
			<blobs>
				<biases offset="3263000" size="256" />
				<weights offset="3263256" size="98304" />
			</blobs>
		</layer>
		<layer name="model/add_5/add" type="Eltwise" precision="FP32" id="69">
			<data operation="sum" />
			<input>
				<port id="0">
					<dim>1</dim>
					<dim>64</dim>
					<dim>96</dim>
					<dim>160</dim>
				</port>
				<port id="1">
					<dim>1</dim>
					<dim>64</dim>
					<dim>96</dim>
					<dim>160</dim>
				</port>
			</input>
			<output>
				<port id="2">
					<dim>1</dim>
					<dim>64</dim>
					<dim>96</dim>
					<dim>160</dim>
				</port>
			</output>
		</layer>
		<layer name="model/conv2d_42/Conv2D" type="Convolution" precision="FP32" id="70">
			<data auto_pad="valid" dilations="1,1" group="1" kernel="1,1" output="16" pads_begin="0,0" pads_end="0,0" quantization_level="I8" strides="1,1" />
			<input>
				<port id="0">
					<dim>1</dim>
					<dim>64</dim>
					<dim>96</dim>
					<dim>160</dim>
				</port>
			</input>
			<output>
				<port id="1">
					<dim>1</dim>
					<dim>16</dim>
					<dim>96</dim>
					<dim>160</dim>
				</port>
			</output>
			<blobs>
				<biases offset="3361560" size="64" />
				<weights offset="3361624" size="4096" />
			</blobs>
		</layer>
		<layer name="model/conv2d_38/Conv2D" type="Convolution" precision="FP32" id="71">
			<data auto_pad="valid" dilations="1,1" group="1" kernel="1,1" output="2" pads_begin="0,0" pads_end="0,0" quantization_level="I8" strides="1,1" />
			<input>
				<port id="0">
					<dim>1</dim>
					<dim>64</dim>
					<dim>96</dim>
					<dim>160</dim>
				</port>
			</input>
			<output>
				<port id="1">
					<dim>1</dim>
					<dim>2</dim>
					<dim>96</dim>
					<dim>160</dim>
				</port>
			</output>
			<blobs>
				<biases offset="3365720" size="8" />
				<weights offset="3365728" size="512" />
			</blobs>
		</layer>
		<layer name="model/conv2d_21/Conv2D" type="Convolution" precision="FP32" id="72">
			<data auto_pad="same_upper" dilations="1,1" group="1" kernel="1,1" output="384" pads_begin="0,0" pads_end="0,0" quantization_level="I8" strides="1,1" />
			<input>
				<port id="0">
					<dim>1</dim>
					<dim>64</dim>
					<dim>96</dim>
					<dim>160</dim>
				</port>
			</input>
			<output>
				<port id="1">
					<dim>1</dim>
					<dim>384</dim>
					<dim>96</dim>
					<dim>160</dim>
				</port>
			</output>
			<blobs>
				<biases offset="3366240" size="1536" />
				<weights offset="3367776" size="98304" />
			</blobs>
		</layer>
		<layer name="model/re_lu_21/Relu6" type="Clamp" precision="FP32" id="73">
			<data max="6.000000" min="0.000000" />
			<input>
				<port id="0">
					<dim>1</dim>
					<dim>384</dim>
					<dim>96</dim>
					<dim>160</dim>
				</port>
			</input>
			<output>
				<port id="1">
					<dim>1</dim>
					<dim>384</dim>
					<dim>96</dim>
					<dim>160</dim>
				</port>
			</output>
		</layer>
		<layer name="model/separable_conv2d_10/separable_conv2d/depthwise" type="Convolution" precision="FP32" id="74">
			<data auto_pad="same_upper" dilations="1,1" group="384" kernel="3,3" output="384" pads_begin="0,0" pads_end="1,1" quantization_level="I8" strides="2,2" />
			<input>
				<port id="0">
					<dim>1</dim>
					<dim>384</dim>
					<dim>96</dim>
					<dim>160</dim>
				</port>
			</input>
			<output>
				<port id="1">
					<dim>1</dim>
					<dim>384</dim>
					<dim>48</dim>
					<dim>80</dim>
				</port>
			</output>
			<blobs>
				<weights offset="3466080" size="13824" />
			</blobs>
		</layer>
		<layer name="model/separable_conv2d_10/separable_conv2d" type="Convolution" precision="FP32" id="75">
			<data auto_pad="valid" dilations="1,1" group="1" kernel="1,1" output="384" pads_begin="0,0" pads_end="0,0" quantization_level="I8" strides="1,1" />
			<input>
				<port id="0">
					<dim>1</dim>
					<dim>384</dim>
					<dim>48</dim>
					<dim>80</dim>
				</port>
			</input>
			<output>
				<port id="1">
					<dim>1</dim>
					<dim>384</dim>
					<dim>48</dim>
					<dim>80</dim>
				</port>
			</output>
			<blobs>
				<biases offset="3479904" size="1536" />
				<weights offset="3481440" size="589824" />
			</blobs>
		</layer>
		<layer name="model/re_lu_22/Relu6" type="Clamp" precision="FP32" id="76">
			<data max="6.000000" min="0.000000" />
			<input>
				<port id="0">
					<dim>1</dim>
					<dim>384</dim>
					<dim>48</dim>
					<dim>80</dim>
				</port>
			</input>
			<output>
				<port id="1">
					<dim>1</dim>
					<dim>384</dim>
					<dim>48</dim>
					<dim>80</dim>
				</port>
			</output>
		</layer>
		<layer name="model/conv2d_22/Conv2D" type="Convolution" precision="FP32" id="77">
			<data auto_pad="same_upper" dilations="1,1" group="1" kernel="1,1" output="96" pads_begin="0,0" pads_end="0,0" quantization_level="I8" strides="1,1" />
			<input>
				<port id="0">
					<dim>1</dim>
					<dim>384</dim>
					<dim>48</dim>
					<dim>80</dim>
				</port>
			</input>
			<output>
				<port id="1">
					<dim>1</dim>
					<dim>96</dim>
					<dim>48</dim>
					<dim>80</dim>
				</port>
			</output>
			<blobs>
				<biases offset="4071264" size="384" />
				<weights offset="4071648" size="147456" />
			</blobs>
		</layer>
		<layer name="model/conv2d_23/Conv2D" type="Convolution" precision="FP32" id="78">
			<data auto_pad="same_upper" dilations="1,1" group="1" kernel="1,1" output="576" pads_begin="0,0" pads_end="0,0" quantization_level="I8" strides="1,1" />
			<input>
				<port id="0">
					<dim>1</dim>
					<dim>96</dim>
					<dim>48</dim>
					<dim>80</dim>
				</port>
			</input>
			<output>
				<port id="1">
					<dim>1</dim>
					<dim>576</dim>
					<dim>48</dim>
					<dim>80</dim>
				</port>
			</output>
			<blobs>
				<biases offset="4219104" size="2304" />
				<weights offset="4221408" size="221184" />
			</blobs>
		</layer>
		<layer name="model/re_lu_23/Relu6" type="Clamp" precision="FP32" id="79">
			<data max="6.000000" min="0.000000" />
			<input>
				<port id="0">
					<dim>1</dim>
					<dim>576</dim>
					<dim>48</dim>
					<dim>80</dim>
				</port>
			</input>
			<output>
				<port id="1">
					<dim>1</dim>
					<dim>576</dim>
					<dim>48</dim>
					<dim>80</dim>
				</port>
			</output>
		</layer>
		<layer name="model/separable_conv2d_11/separable_conv2d/depthwise" type="Convolution" precision="FP32" id="80">
			<data auto_pad="same_upper" dilations="1,1" group="576" kernel="3,3" output="576" pads_begin="1,1" pads_end="1,1" quantization_level="I8" strides="1,1" />
			<input>
				<port id="0">
					<dim>1</dim>
					<dim>576</dim>
					<dim>48</dim>
					<dim>80</dim>
				</port>
			</input>
			<output>
				<port id="1">
					<dim>1</dim>
					<dim>576</dim>
					<dim>48</dim>
					<dim>80</dim>
				</port>
			</output>
			<blobs>
				<weights offset="4442592" size="20736" />
			</blobs>
		</layer>
		<layer name="model/separable_conv2d_11/separable_conv2d" type="Convolution" precision="FP32" id="81">
			<data auto_pad="valid" dilations="1,1" group="1" kernel="1,1" output="576" pads_begin="0,0" pads_end="0,0" quantization_level="I8" strides="1,1" />
			<input>
				<port id="0">
					<dim>1</dim>
					<dim>576</dim>
					<dim>48</dim>
					<dim>80</dim>
				</port>
			</input>
			<output>
				<port id="1">
					<dim>1</dim>
					<dim>576</dim>
					<dim>48</dim>
					<dim>80</dim>
				</port>
			</output>
			<blobs>
				<biases offset="4463328" size="2304" />
				<weights offset="4465632" size="1327104" />
			</blobs>
		</layer>
		<layer name="model/re_lu_24/Relu6" type="Clamp" precision="FP32" id="82">
			<data max="6.000000" min="0.000000" />
			<input>
				<port id="0">
					<dim>1</dim>
					<dim>576</dim>
					<dim>48</dim>
					<dim>80</dim>
				</port>
			</input>
			<output>
				<port id="1">
					<dim>1</dim>
					<dim>576</dim>
					<dim>48</dim>
					<dim>80</dim>
				</port>
			</output>
		</layer>
		<layer name="model/conv2d_24/Conv2D" type="Convolution" precision="FP32" id="83">
			<data auto_pad="same_upper" dilations="1,1" group="1" kernel="1,1" output="96" pads_begin="0,0" pads_end="0,0" quantization_level="I8" strides="1,1" />
			<input>
				<port id="0">
					<dim>1</dim>
					<dim>576</dim>
					<dim>48</dim>
					<dim>80</dim>
				</port>
			</input>
			<output>
				<port id="1">
					<dim>1</dim>
					<dim>96</dim>
					<dim>48</dim>
					<dim>80</dim>
				</port>
			</output>
			<blobs>
				<biases offset="5792736" size="384" />
				<weights offset="5793120" size="221184" />
			</blobs>
		</layer>
		<layer name="model/add_6/add" type="Eltwise" precision="FP32" id="84">
			<data operation="sum" />
			<input>
				<port id="0">
					<dim>1</dim>
					<dim>96</dim>
					<dim>48</dim>
					<dim>80</dim>
				</port>
				<port id="1">
					<dim>1</dim>
					<dim>96</dim>
					<dim>48</dim>
					<dim>80</dim>
				</port>
			</input>
			<output>
				<port id="2">
					<dim>1</dim>
					<dim>96</dim>
					<dim>48</dim>
					<dim>80</dim>
				</port>
			</output>
		</layer>
		<layer name="model/conv2d_25/Conv2D" type="Convolution" precision="FP32" id="85">
			<data auto_pad="same_upper" dilations="1,1" group="1" kernel="1,1" output="576" pads_begin="0,0" pads_end="0,0" quantization_level="I8" strides="1,1" />
			<input>
				<port id="0">
					<dim>1</dim>
					<dim>96</dim>
					<dim>48</dim>
					<dim>80</dim>
				</port>
			</input>
			<output>
				<port id="1">
					<dim>1</dim>
					<dim>576</dim>
					<dim>48</dim>
					<dim>80</dim>
				</port>
			</output>
			<blobs>
				<biases offset="6014304" size="2304" />
				<weights offset="6016608" size="221184" />
			</blobs>
		</layer>
		<layer name="model/re_lu_25/Relu6" type="Clamp" precision="FP32" id="86">
			<data max="6.000000" min="0.000000" />
			<input>
				<port id="0">
					<dim>1</dim>
					<dim>576</dim>
					<dim>48</dim>
					<dim>80</dim>
				</port>
			</input>
			<output>
				<port id="1">
					<dim>1</dim>
					<dim>576</dim>
					<dim>48</dim>
					<dim>80</dim>
				</port>
			</output>
		</layer>
		<layer name="model/separable_conv2d_12/separable_conv2d/depthwise" type="Convolution" precision="FP32" id="87">
			<data auto_pad="same_upper" dilations="1,1" group="576" kernel="3,3" output="576" pads_begin="1,1" pads_end="1,1" quantization_level="I8" strides="1,1" />
			<input>
				<port id="0">
					<dim>1</dim>
					<dim>576</dim>
					<dim>48</dim>
					<dim>80</dim>
				</port>
			</input>
			<output>
				<port id="1">
					<dim>1</dim>
					<dim>576</dim>
					<dim>48</dim>
					<dim>80</dim>
				</port>
			</output>
			<blobs>
				<weights offset="6237792" size="20736" />
			</blobs>
		</layer>
		<layer name="model/separable_conv2d_12/separable_conv2d" type="Convolution" precision="FP32" id="88">
			<data auto_pad="valid" dilations="1,1" group="1" kernel="1,1" output="576" pads_begin="0,0" pads_end="0,0" quantization_level="I8" strides="1,1" />
			<input>
				<port id="0">
					<dim>1</dim>
					<dim>576</dim>
					<dim>48</dim>
					<dim>80</dim>
				</port>
			</input>
			<output>
				<port id="1">
					<dim>1</dim>
					<dim>576</dim>
					<dim>48</dim>
					<dim>80</dim>
				</port>
			</output>
			<blobs>
				<biases offset="6258528" size="2304" />
				<weights offset="6260832" size="1327104" />
			</blobs>
		</layer>
		<layer name="model/re_lu_26/Relu6" type="Clamp" precision="FP32" id="89">
			<data max="6.000000" min="0.000000" />
			<input>
				<port id="0">
					<dim>1</dim>
					<dim>576</dim>
					<dim>48</dim>
					<dim>80</dim>
				</port>
			</input>
			<output>
				<port id="1">
					<dim>1</dim>
					<dim>576</dim>
					<dim>48</dim>
					<dim>80</dim>
				</port>
			</output>
		</layer>
		<layer name="model/conv2d_26/Conv2D" type="Convolution" precision="FP32" id="90">
			<data auto_pad="same_upper" dilations="1,1" group="1" kernel="1,1" output="96" pads_begin="0,0" pads_end="0,0" quantization_level="I8" strides="1,1" />
			<input>
				<port id="0">
					<dim>1</dim>
					<dim>576</dim>
					<dim>48</dim>
					<dim>80</dim>
				</port>
			</input>
			<output>
				<port id="1">
					<dim>1</dim>
					<dim>96</dim>
					<dim>48</dim>
					<dim>80</dim>
				</port>
			</output>
			<blobs>
				<biases offset="7587936" size="384" />
				<weights offset="7588320" size="221184" />
			</blobs>
		</layer>
		<layer name="model/add_7/add" type="Eltwise" precision="FP32" id="91">
			<data operation="sum" />
			<input>
				<port id="0">
					<dim>1</dim>
					<dim>96</dim>
					<dim>48</dim>
					<dim>80</dim>
				</port>
				<port id="1">
					<dim>1</dim>
					<dim>96</dim>
					<dim>48</dim>
					<dim>80</dim>
				</port>
			</input>
			<output>
				<port id="2">
					<dim>1</dim>
					<dim>96</dim>
					<dim>48</dim>
					<dim>80</dim>
				</port>
			</output>
		</layer>
		<layer name="model/conv2d_41/Conv2D" type="Convolution" precision="FP32" id="92">
			<data auto_pad="valid" dilations="1,1" group="1" kernel="1,1" output="16" pads_begin="0,0" pads_end="0,0" quantization_level="I8" strides="1,1" />
			<input>
				<port id="0">
					<dim>1</dim>
					<dim>96</dim>
					<dim>48</dim>
					<dim>80</dim>
				</port>
			</input>
			<output>
				<port id="1">
					<dim>1</dim>
					<dim>16</dim>
					<dim>48</dim>
					<dim>80</dim>
				</port>
			</output>
			<blobs>
				<biases offset="7809504" size="64" />
				<weights offset="7809568" size="6144" />
			</blobs>
		</layer>
		<layer name="model/conv2d_37/Conv2D" type="Convolution" precision="FP32" id="93">
			<data auto_pad="valid" dilations="1,1" group="1" kernel="1,1" output="2" pads_begin="0,0" pads_end="0,0" quantization_level="I8" strides="1,1" />
			<input>
				<port id="0">
					<dim>1</dim>
					<dim>96</dim>
					<dim>48</dim>
					<dim>80</dim>
				</port>
			</input>
			<output>
				<port id="1">
					<dim>1</dim>
					<dim>2</dim>
					<dim>48</dim>
					<dim>80</dim>
				</port>
			</output>
			<blobs>
				<biases offset="7815712" size="8" />
				<weights offset="7815720" size="768" />
			</blobs>
		</layer>
		<layer name="model/conv2d_27/Conv2D" type="Convolution" precision="FP32" id="94">
			<data auto_pad="same_upper" dilations="1,1" group="1" kernel="1,1" output="576" pads_begin="0,0" pads_end="0,0" quantization_level="I8" strides="1,1" />
			<input>
				<port id="0">
					<dim>1</dim>
					<dim>96</dim>
					<dim>48</dim>
					<dim>80</dim>
				</port>
			</input>
			<output>
				<port id="1">
					<dim>1</dim>
					<dim>576</dim>
					<dim>48</dim>
					<dim>80</dim>
				</port>
			</output>
			<blobs>
				<biases offset="7816488" size="2304" />
				<weights offset="7818792" size="221184" />
			</blobs>
		</layer>
		<layer name="model/re_lu_27/Relu6" type="Clamp" precision="FP32" id="95">
			<data max="6.000000" min="0.000000" />
			<input>
				<port id="0">
					<dim>1</dim>
					<dim>576</dim>
					<dim>48</dim>
					<dim>80</dim>
				</port>
			</input>
			<output>
				<port id="1">
					<dim>1</dim>
					<dim>576</dim>
					<dim>48</dim>
					<dim>80</dim>
				</port>
			</output>
		</layer>
		<layer name="model/separable_conv2d_13/separable_conv2d/depthwise" type="Convolution" precision="FP32" id="96">
			<data auto_pad="same_upper" dilations="1,1" group="576" kernel="3,3" output="576" pads_begin="0,0" pads_end="1,1" quantization_level="I8" strides="2,2" />
			<input>
				<port id="0">
					<dim>1</dim>
					<dim>576</dim>
					<dim>48</dim>
					<dim>80</dim>
				</port>
			</input>
			<output>
				<port id="1">
					<dim>1</dim>
					<dim>576</dim>
					<dim>24</dim>
					<dim>40</dim>
				</port>
			</output>
			<blobs>
				<weights offset="8039976" size="20736" />
			</blobs>
		</layer>
		<layer name="model/separable_conv2d_13/separable_conv2d" type="Convolution" precision="FP32" id="97">
			<data auto_pad="valid" dilations="1,1" group="1" kernel="1,1" output="576" pads_begin="0,0" pads_end="0,0" quantization_level="I8" strides="1,1" />
			<input>
				<port id="0">
					<dim>1</dim>
					<dim>576</dim>
					<dim>24</dim>
					<dim>40</dim>
				</port>
			</input>
			<output>
				<port id="1">
					<dim>1</dim>
					<dim>576</dim>
					<dim>24</dim>
					<dim>40</dim>
				</port>
			</output>
			<blobs>
				<biases offset="8060712" size="2304" />
				<weights offset="8063016" size="1327104" />
			</blobs>
		</layer>
		<layer name="model/re_lu_28/Relu6" type="Clamp" precision="FP32" id="98">
			<data max="6.000000" min="0.000000" />
			<input>
				<port id="0">
					<dim>1</dim>
					<dim>576</dim>
					<dim>24</dim>
					<dim>40</dim>
				</port>
			</input>
			<output>
				<port id="1">
					<dim>1</dim>
					<dim>576</dim>
					<dim>24</dim>
					<dim>40</dim>
				</port>
			</output>
		</layer>
		<layer name="model/conv2d_28/Conv2D" type="Convolution" precision="FP32" id="99">
			<data auto_pad="same_upper" dilations="1,1" group="1" kernel="1,1" output="160" pads_begin="0,0" pads_end="0,0" quantization_level="I8" strides="1,1" />
			<input>
				<port id="0">
					<dim>1</dim>
					<dim>576</dim>
					<dim>24</dim>
					<dim>40</dim>
				</port>
			</input>
			<output>
				<port id="1">
					<dim>1</dim>
					<dim>160</dim>
					<dim>24</dim>
					<dim>40</dim>
				</port>
			</output>
			<blobs>
				<biases offset="9390120" size="640" />
				<weights offset="9390760" size="368640" />
			</blobs>
		</layer>
		<layer name="model/conv2d_29/Conv2D" type="Convolution" precision="FP32" id="100">
			<data auto_pad="same_upper" dilations="1,1" group="1" kernel="1,1" output="960" pads_begin="0,0" pads_end="0,0" quantization_level="I8" strides="1,1" />
			<input>
				<port id="0">
					<dim>1</dim>
					<dim>160</dim>
					<dim>24</dim>
					<dim>40</dim>
				</port>
			</input>
			<output>
				<port id="1">
					<dim>1</dim>
					<dim>960</dim>
					<dim>24</dim>
					<dim>40</dim>
				</port>
			</output>
			<blobs>
				<biases offset="9759400" size="3840" />
				<weights offset="9763240" size="614400" />
			</blobs>
		</layer>
		<layer name="model/re_lu_29/Relu6" type="Clamp" precision="FP32" id="101">
			<data max="6.000000" min="0.000000" />
			<input>
				<port id="0">
					<dim>1</dim>
					<dim>960</dim>
					<dim>24</dim>
					<dim>40</dim>
				</port>
			</input>
			<output>
				<port id="1">
					<dim>1</dim>
					<dim>960</dim>
					<dim>24</dim>
					<dim>40</dim>
				</port>
			</output>
		</layer>
		<layer name="model/separable_conv2d_14/separable_conv2d/depthwise" type="Convolution" precision="FP32" id="102">
			<data auto_pad="same_upper" dilations="1,1" group="960" kernel="3,3" output="960" pads_begin="1,1" pads_end="1,1" quantization_level="I8" strides="1,1" />
			<input>
				<port id="0">
					<dim>1</dim>
					<dim>960</dim>
					<dim>24</dim>
					<dim>40</dim>
				</port>
			</input>
			<output>
				<port id="1">
					<dim>1</dim>
					<dim>960</dim>
					<dim>24</dim>
					<dim>40</dim>
				</port>
			</output>
			<blobs>
				<weights offset="10377640" size="34560" />
			</blobs>
		</layer>
		<layer name="model/separable_conv2d_14/separable_conv2d" type="Convolution" precision="FP32" id="103">
			<data auto_pad="valid" dilations="1,1" group="1" kernel="1,1" output="960" pads_begin="0,0" pads_end="0,0" quantization_level="I8" strides="1,1" />
			<input>
				<port id="0">
					<dim>1</dim>
					<dim>960</dim>
					<dim>24</dim>
					<dim>40</dim>
				</port>
			</input>
			<output>
				<port id="1">
					<dim>1</dim>
					<dim>960</dim>
					<dim>24</dim>
					<dim>40</dim>
				</port>
			</output>
			<blobs>
				<biases offset="10412200" size="3840" />
				<weights offset="10416040" size="3686400" />
			</blobs>
		</layer>
		<layer name="model/re_lu_30/Relu6" type="Clamp" precision="FP32" id="104">
			<data max="6.000000" min="0.000000" />
			<input>
				<port id="0">
					<dim>1</dim>
					<dim>960</dim>
					<dim>24</dim>
					<dim>40</dim>
				</port>
			</input>
			<output>
				<port id="1">
					<dim>1</dim>
					<dim>960</dim>
					<dim>24</dim>
					<dim>40</dim>
				</port>
			</output>
		</layer>
		<layer name="model/conv2d_30/Conv2D" type="Convolution" precision="FP32" id="105">
			<data auto_pad="same_upper" dilations="1,1" group="1" kernel="1,1" output="160" pads_begin="0,0" pads_end="0,0" quantization_level="I8" strides="1,1" />
			<input>
				<port id="0">
					<dim>1</dim>
					<dim>960</dim>
					<dim>24</dim>
					<dim>40</dim>
				</port>
			</input>
			<output>
				<port id="1">
					<dim>1</dim>
					<dim>160</dim>
					<dim>24</dim>
					<dim>40</dim>
				</port>
			</output>
			<blobs>
				<biases offset="14102440" size="640" />
				<weights offset="14103080" size="614400" />
			</blobs>
		</layer>
		<layer name="model/add_8/add" type="Eltwise" precision="FP32" id="106">
			<data operation="sum" />
			<input>
				<port id="0">
					<dim>1</dim>
					<dim>160</dim>
					<dim>24</dim>
					<dim>40</dim>
				</port>
				<port id="1">
					<dim>1</dim>
					<dim>160</dim>
					<dim>24</dim>
					<dim>40</dim>
				</port>
			</input>
			<output>
				<port id="2">
					<dim>1</dim>
					<dim>160</dim>
					<dim>24</dim>
					<dim>40</dim>
				</port>
			</output>
		</layer>
		<layer name="model/conv2d_31/Conv2D" type="Convolution" precision="FP32" id="107">
			<data auto_pad="same_upper" dilations="1,1" group="1" kernel="1,1" output="960" pads_begin="0,0" pads_end="0,0" quantization_level="I8" strides="1,1" />
			<input>
				<port id="0">
					<dim>1</dim>
					<dim>160</dim>
					<dim>24</dim>
					<dim>40</dim>
				</port>
			</input>
			<output>
				<port id="1">
					<dim>1</dim>
					<dim>960</dim>
					<dim>24</dim>
					<dim>40</dim>
				</port>
			</output>
			<blobs>
				<biases offset="14717480" size="3840" />
				<weights offset="14721320" size="614400" />
			</blobs>
		</layer>
		<layer name="model/re_lu_31/Relu6" type="Clamp" precision="FP32" id="108">
			<data max="6.000000" min="0.000000" />
			<input>
				<port id="0">
					<dim>1</dim>
					<dim>960</dim>
					<dim>24</dim>
					<dim>40</dim>
				</port>
			</input>
			<output>
				<port id="1">
					<dim>1</dim>
					<dim>960</dim>
					<dim>24</dim>
					<dim>40</dim>
				</port>
			</output>
		</layer>
		<layer name="model/separable_conv2d_15/separable_conv2d/depthwise" type="Convolution" precision="FP32" id="109">
			<data auto_pad="same_upper" dilations="1,1" group="960" kernel="3,3" output="960" pads_begin="1,1" pads_end="1,1" quantization_level="I8" strides="1,1" />
			<input>
				<port id="0">
					<dim>1</dim>
					<dim>960</dim>
					<dim>24</dim>
					<dim>40</dim>
				</port>
			</input>
			<output>
				<port id="1">
					<dim>1</dim>
					<dim>960</dim>
					<dim>24</dim>
					<dim>40</dim>
				</port>
			</output>
			<blobs>
				<weights offset="15335720" size="34560" />
			</blobs>
		</layer>
		<layer name="model/separable_conv2d_15/separable_conv2d" type="Convolution" precision="FP32" id="110">
			<data auto_pad="valid" dilations="1,1" group="1" kernel="1,1" output="960" pads_begin="0,0" pads_end="0,0" quantization_level="I8" strides="1,1" />
			<input>
				<port id="0">
					<dim>1</dim>
					<dim>960</dim>
					<dim>24</dim>
					<dim>40</dim>
				</port>
			</input>
			<output>
				<port id="1">
					<dim>1</dim>
					<dim>960</dim>
					<dim>24</dim>
					<dim>40</dim>
				</port>
			</output>
			<blobs>
				<biases offset="15370280" size="3840" />
				<weights offset="15374120" size="3686400" />
			</blobs>
		</layer>
		<layer name="model/re_lu_32/Relu6" type="Clamp" precision="FP32" id="111">
			<data max="6.000000" min="0.000000" />
			<input>
				<port id="0">
					<dim>1</dim>
					<dim>960</dim>
					<dim>24</dim>
					<dim>40</dim>
				</port>
			</input>
			<output>
				<port id="1">
					<dim>1</dim>
					<dim>960</dim>
					<dim>24</dim>
					<dim>40</dim>
				</port>
			</output>
		</layer>
		<layer name="model/conv2d_32/Conv2D" type="Convolution" precision="FP32" id="112">
			<data auto_pad="same_upper" dilations="1,1" group="1" kernel="1,1" output="160" pads_begin="0,0" pads_end="0,0" quantization_level="I8" strides="1,1" />
			<input>
				<port id="0">
					<dim>1</dim>
					<dim>960</dim>
					<dim>24</dim>
					<dim>40</dim>
				</port>
			</input>
			<output>
				<port id="1">
					<dim>1</dim>
					<dim>160</dim>
					<dim>24</dim>
					<dim>40</dim>
				</port>
			</output>
			<blobs>
				<biases offset="19060520" size="640" />
				<weights offset="19061160" size="614400" />
			</blobs>
		</layer>
		<layer name="model/add_9/add" type="Eltwise" precision="FP32" id="113">
			<data operation="sum" />
			<input>
				<port id="0">
					<dim>1</dim>
					<dim>160</dim>
					<dim>24</dim>
					<dim>40</dim>
				</port>
				<port id="1">
					<dim>1</dim>
					<dim>160</dim>
					<dim>24</dim>
					<dim>40</dim>
				</port>
			</input>
			<output>
				<port id="2">
					<dim>1</dim>
					<dim>160</dim>
					<dim>24</dim>
					<dim>40</dim>
				</port>
			</output>
		</layer>
		<layer name="model/conv2d_33/Conv2D" type="Convolution" precision="FP32" id="114">
			<data auto_pad="same_upper" dilations="1,1" group="1" kernel="1,1" output="960" pads_begin="0,0" pads_end="0,0" quantization_level="I8" strides="1,1" />
			<input>
				<port id="0">
					<dim>1</dim>
					<dim>160</dim>
					<dim>24</dim>
					<dim>40</dim>
				</port>
			</input>
			<output>
				<port id="1">
					<dim>1</dim>
					<dim>960</dim>
					<dim>24</dim>
					<dim>40</dim>
				</port>
			</output>
			<blobs>
				<biases offset="19675560" size="3840" />
				<weights offset="19679400" size="614400" />
			</blobs>
		</layer>
		<layer name="model/re_lu_33/Relu6" type="Clamp" precision="FP32" id="115">
			<data max="6.000000" min="0.000000" />
			<input>
				<port id="0">
					<dim>1</dim>
					<dim>960</dim>
					<dim>24</dim>
					<dim>40</dim>
				</port>
			</input>
			<output>
				<port id="1">
					<dim>1</dim>
					<dim>960</dim>
					<dim>24</dim>
					<dim>40</dim>
				</port>
			</output>
		</layer>
		<layer name="model/separable_conv2d_16/separable_conv2d/depthwise" type="Convolution" precision="FP32" id="116">
			<data auto_pad="same_upper" dilations="1,1" group="960" kernel="3,3" output="960" pads_begin="1,1" pads_end="1,1" quantization_level="I8" strides="1,1" />
			<input>
				<port id="0">
					<dim>1</dim>
					<dim>960</dim>
					<dim>24</dim>
					<dim>40</dim>
				</port>
			</input>
			<output>
				<port id="1">
					<dim>1</dim>
					<dim>960</dim>
					<dim>24</dim>
					<dim>40</dim>
				</port>
			</output>
			<blobs>
				<weights offset="20293800" size="34560" />
			</blobs>
		</layer>
		<layer name="model/separable_conv2d_16/separable_conv2d" type="Convolution" precision="FP32" id="117">
			<data auto_pad="valid" dilations="1,1" group="1" kernel="1,1" output="960" pads_begin="0,0" pads_end="0,0" quantization_level="I8" strides="1,1" />
			<input>
				<port id="0">
					<dim>1</dim>
					<dim>960</dim>
					<dim>24</dim>
					<dim>40</dim>
				</port>
			</input>
			<output>
				<port id="1">
					<dim>1</dim>
					<dim>960</dim>
					<dim>24</dim>
					<dim>40</dim>
				</port>
			</output>
			<blobs>
				<biases offset="20328360" size="3840" />
				<weights offset="20332200" size="3686400" />
			</blobs>
		</layer>
		<layer name="model/re_lu_34/Relu6" type="Clamp" precision="FP32" id="118">
			<data max="6.000000" min="0.000000" />
			<input>
				<port id="0">
					<dim>1</dim>
					<dim>960</dim>
					<dim>24</dim>
					<dim>40</dim>
				</port>
			</input>
			<output>
				<port id="1">
					<dim>1</dim>
					<dim>960</dim>
					<dim>24</dim>
					<dim>40</dim>
				</port>
			</output>
		</layer>
		<layer name="model/conv2d_34/Conv2D" type="Convolution" precision="FP32" id="119">
			<data auto_pad="same_upper" dilations="1,1" group="1" kernel="1,1" output="320" pads_begin="0,0" pads_end="0,0" quantization_level="I8" strides="1,1" />
			<input>
				<port id="0">
					<dim>1</dim>
					<dim>960</dim>
					<dim>24</dim>
					<dim>40</dim>
				</port>
			</input>
			<output>
				<port id="1">
					<dim>1</dim>
					<dim>320</dim>
					<dim>24</dim>
					<dim>40</dim>
				</port>
			</output>
			<blobs>
				<biases offset="24018600" size="1280" />
				<weights offset="24019880" size="1228800" />
			</blobs>
		</layer>
		<layer name="model/conv2d_35/Conv2D" type="Convolution" precision="FP32" id="120">
			<data auto_pad="same_upper" dilations="1,1" group="1" kernel="1,1" output="1280" pads_begin="0,0" pads_end="0,0" quantization_level="I8" strides="1,1" />
			<input>
				<port id="0">
					<dim>1</dim>
					<dim>320</dim>
					<dim>24</dim>
					<dim>40</dim>
				</port>
			</input>
			<output>
				<port id="1">
					<dim>1</dim>
					<dim>1280</dim>
					<dim>24</dim>
					<dim>40</dim>
				</port>
			</output>
			<blobs>
				<biases offset="25248680" size="5120" />
				<weights offset="25253800" size="1638400" />
			</blobs>
		</layer>
		<layer name="model/re_lu_35/Relu6" type="Clamp" precision="FP32" id="121">
			<data max="6.000000" min="0.000000" />
			<input>
				<port id="0">
					<dim>1</dim>
					<dim>1280</dim>
					<dim>24</dim>
					<dim>40</dim>
				</port>
			</input>
			<output>
				<port id="1">
					<dim>1</dim>
					<dim>1280</dim>
					<dim>24</dim>
					<dim>40</dim>
				</port>
			</output>
		</layer>
		<layer name="model/conv2d_40/Conv2D" type="Convolution" precision="FP32" id="122">
			<data auto_pad="valid" dilations="1,1" group="1" kernel="1,1" output="16" pads_begin="0,0" pads_end="0,0" quantization_level="I8" strides="1,1" />
			<input>
				<port id="0">
					<dim>1</dim>
					<dim>1280</dim>
					<dim>24</dim>
					<dim>40</dim>
				</port>
			</input>
			<output>
				<port id="1">
					<dim>1</dim>
					<dim>16</dim>
					<dim>24</dim>
					<dim>40</dim>
				</port>
			</output>
			<blobs>
				<biases offset="26892200" size="64" />
				<weights offset="26892264" size="81920" />
			</blobs>
		</layer>
		<layer name="model/up_sampling2d_3/ResizeBilinear" type="Interp" precision="FP32" id="123">
			<data align_corners="0" factor="2.0" height="0" pad_beg="0" pad_end="0" width="0" />
			<input>
				<port id="0">
					<dim>1</dim>
					<dim>16</dim>
					<dim>24</dim>
					<dim>40</dim>
				</port>
			</input>
			<output>
				<port id="1">
					<dim>1</dim>
					<dim>16</dim>
					<dim>48</dim>
					<dim>80</dim>
				</port>
			</output>
		</layer>
		<layer name="model/add_12/add" type="Eltwise" precision="FP32" id="124">
			<data operation="sum" />
			<input>
				<port id="0">
					<dim>1</dim>
					<dim>16</dim>
					<dim>48</dim>
					<dim>80</dim>
				</port>
				<port id="1">
					<dim>1</dim>
					<dim>16</dim>
					<dim>48</dim>
					<dim>80</dim>
				</port>
			</input>
			<output>
				<port id="2">
					<dim>1</dim>
					<dim>16</dim>
					<dim>48</dim>
					<dim>80</dim>
				</port>
			</output>
		</layer>
		<layer name="model/up_sampling2d_4/ResizeBilinear" type="Interp" precision="FP32" id="125">
			<data align_corners="0" factor="2.0" height="0" pad_beg="0" pad_end="0" width="0" />
			<input>
				<port id="0">
					<dim>1</dim>
					<dim>16</dim>
					<dim>48</dim>
					<dim>80</dim>
				</port>
			</input>
			<output>
				<port id="1">
					<dim>1</dim>
					<dim>16</dim>
					<dim>96</dim>
					<dim>160</dim>
				</port>
			</output>
		</layer>
		<layer name="model/add_13/add" type="Eltwise" precision="FP32" id="126">
			<data operation="sum" />
			<input>
				<port id="0">
					<dim>1</dim>
					<dim>16</dim>
					<dim>96</dim>
					<dim>160</dim>
				</port>
				<port id="1">
					<dim>1</dim>
					<dim>16</dim>
					<dim>96</dim>
					<dim>160</dim>
				</port>
			</input>
			<output>
				<port id="2">
					<dim>1</dim>
					<dim>16</dim>
					<dim>96</dim>
					<dim>160</dim>
				</port>
			</output>
		</layer>
		<layer name="model/up_sampling2d_5/ResizeBilinear" type="Interp" precision="FP32" id="127">
			<data align_corners="0" factor="2.0" height="0" pad_beg="0" pad_end="0" width="0" />
			<input>
				<port id="0">
					<dim>1</dim>
					<dim>16</dim>
					<dim>96</dim>
					<dim>160</dim>
				</port>
			</input>
			<output>
				<port id="1">
					<dim>1</dim>
					<dim>16</dim>
					<dim>192</dim>
					<dim>320</dim>
				</port>
			</output>
		</layer>
		<layer name="model/conv2d_36/Conv2D" type="Convolution" precision="FP32" id="128">
			<data auto_pad="valid" dilations="1,1" group="1" kernel="1,1" output="2" pads_begin="0,0" pads_end="0,0" quantization_level="I8" strides="1,1" />
			<input>
				<port id="0">
					<dim>1</dim>
					<dim>1280</dim>
					<dim>24</dim>
					<dim>40</dim>
				</port>
			</input>
			<output>
				<port id="1">
					<dim>1</dim>
					<dim>2</dim>
					<dim>24</dim>
					<dim>40</dim>
				</port>
			</output>
			<blobs>
				<biases offset="26974184" size="8" />
				<weights offset="26974192" size="10240" />
			</blobs>
		</layer>
		<layer name="model/up_sampling2d/ResizeBilinear" type="Interp" precision="FP32" id="129">
			<data align_corners="0" factor="2.0" height="0" pad_beg="0" pad_end="0" width="0" />
			<input>
				<port id="0">
					<dim>1</dim>
					<dim>2</dim>
					<dim>24</dim>
					<dim>40</dim>
				</port>
			</input>
			<output>
				<port id="1">
					<dim>1</dim>
					<dim>2</dim>
					<dim>48</dim>
					<dim>80</dim>
				</port>
			</output>
		</layer>
		<layer name="model/add_10/add" type="Eltwise" precision="FP32" id="130">
			<data operation="sum" />
			<input>
				<port id="0">
					<dim>1</dim>
					<dim>2</dim>
					<dim>48</dim>
					<dim>80</dim>
				</port>
				<port id="1">
					<dim>1</dim>
					<dim>2</dim>
					<dim>48</dim>
					<dim>80</dim>
				</port>
			</input>
			<output>
				<port id="2">
					<dim>1</dim>
					<dim>2</dim>
					<dim>48</dim>
					<dim>80</dim>
				</port>
			</output>
		</layer>
		<layer name="model/up_sampling2d_1/ResizeBilinear" type="Interp" precision="FP32" id="131">
			<data align_corners="0" factor="2.0" height="0" pad_beg="0" pad_end="0" width="0" />
			<input>
				<port id="0">
					<dim>1</dim>
					<dim>2</dim>
					<dim>48</dim>
					<dim>80</dim>
				</port>
			</input>
			<output>
				<port id="1">
					<dim>1</dim>
					<dim>2</dim>
					<dim>96</dim>
					<dim>160</dim>
				</port>
			</output>
		</layer>
		<layer name="model/add_11/add" type="Eltwise" precision="FP32" id="132">
			<data operation="sum" />
			<input>
				<port id="0">
					<dim>1</dim>
					<dim>2</dim>
					<dim>96</dim>
					<dim>160</dim>
				</port>
				<port id="1">
					<dim>1</dim>
					<dim>2</dim>
					<dim>96</dim>
					<dim>160</dim>
				</port>
			</input>
			<output>
				<port id="2">
					<dim>1</dim>
					<dim>2</dim>
					<dim>96</dim>
					<dim>160</dim>
				</port>
			</output>
		</layer>
		<layer name="model/up_sampling2d_2/ResizeBilinear" type="Interp" precision="FP32" id="133">
			<data align_corners="0" factor="2.0" height="0" pad_beg="0" pad_end="0" width="0" />
			<input>
				<port id="0">
					<dim>1</dim>
					<dim>2</dim>
					<dim>96</dim>
					<dim>160</dim>
				</port>
			</input>
			<output>
				<port id="1">
					<dim>1</dim>
					<dim>2</dim>
					<dim>192</dim>
					<dim>320</dim>
				</port>
			</output>
		</layer>
		<layer name="model/conv2d_43/Conv2D" type="Convolution" precision="FP32" id="134">
			<data auto_pad="valid" dilations="1,1" group="1" kernel="1,1" output="16" pads_begin="0,0" pads_end="0,0" quantization_level="I8" strides="1,1" />
			<input>
				<port id="0">
					<dim>1</dim>
					<dim>24</dim>
					<dim>192</dim>
					<dim>320</dim>
				</port>
			</input>
			<output>
				<port id="1">
					<dim>1</dim>
					<dim>16</dim>
					<dim>192</dim>
					<dim>320</dim>
				</port>
			</output>
			<blobs>
				<biases offset="26984432" size="64" />
				<weights offset="26984496" size="1536" />
			</blobs>
		</layer>
		<layer name="model/link_logits_/add" type="Eltwise" precision="FP32" id="135">
			<data operation="sum" />
			<input>
				<port id="0">
					<dim>1</dim>
					<dim>16</dim>
					<dim>192</dim>
					<dim>320</dim>
				</port>
				<port id="1">
					<dim>1</dim>
					<dim>16</dim>
					<dim>192</dim>
					<dim>320</dim>
				</port>
			</input>
			<output>
				<port id="2">
					<dim>1</dim>
					<dim>16</dim>
					<dim>192</dim>
					<dim>320</dim>
				</port>
			</output>
		</layer>
		<layer name="model/conv2d_39/Conv2D" type="Convolution" precision="FP32" id="136">
			<data auto_pad="valid" dilations="1,1" group="1" kernel="1,1" output="2" pads_begin="0,0" pads_end="0,0" quantization_level="I8" strides="1,1" />
			<input>
				<port id="0">
					<dim>1</dim>
					<dim>24</dim>
					<dim>192</dim>
					<dim>320</dim>
				</port>
			</input>
			<output>
				<port id="1">
					<dim>1</dim>
					<dim>2</dim>
					<dim>192</dim>
					<dim>320</dim>
				</port>
			</output>
			<blobs>
				<biases offset="26986032" size="8" />
				<weights offset="26986040" size="192" />
			</blobs>
		</layer>
		<layer name="model/segm_logits/add" type="Eltwise" precision="FP32" id="137">
			<data operation="sum" />
			<input>
				<port id="0">
					<dim>1</dim>
					<dim>2</dim>
					<dim>192</dim>
					<dim>320</dim>
				</port>
				<port id="1">
					<dim>1</dim>
					<dim>2</dim>
					<dim>192</dim>
					<dim>320</dim>
				</port>
			</input>
			<output>
				<port id="2">
					<dim>1</dim>
					<dim>2</dim>
					<dim>192</dim>
					<dim>320</dim>
				</port>
			</output>
		</layer>
	</layers>
	<edges>
		<edge from-layer="0" from-port="0" to-layer="1" to-port="0" />
		<edge from-layer="1" from-port="1" to-layer="2" to-port="0" />
		<edge from-layer="2" from-port="1" to-layer="3" to-port="0" />
		<edge from-layer="3" from-port="1" to-layer="4" to-port="0" />
		<edge from-layer="4" from-port="1" to-layer="5" to-port="0" />
		<edge from-layer="5" from-port="1" to-layer="6" to-port="0" />
		<edge from-layer="6" from-port="1" to-layer="7" to-port="0" />
		<edge from-layer="7" from-port="1" to-layer="8" to-port="0" />
		<edge from-layer="8" from-port="1" to-layer="9" to-port="0" />
		<edge from-layer="9" from-port="1" to-layer="10" to-port="0" />
		<edge from-layer="10" from-port="1" to-layer="11" to-port="0" />
		<edge from-layer="11" from-port="1" to-layer="12" to-port="0" />
		<edge from-layer="12" from-port="1" to-layer="13" to-port="0" />
		<edge from-layer="13" from-port="1" to-layer="14" to-port="0" />
		<edge from-layer="14" from-port="1" to-layer="15" to-port="0" />
		<edge from-layer="15" from-port="1" to-layer="22" to-port="0" />
		<edge from-layer="15" from-port="1" to-layer="16" to-port="0" />
		<edge from-layer="16" from-port="1" to-layer="17" to-port="0" />
		<edge from-layer="17" from-port="1" to-layer="18" to-port="0" />
		<edge from-layer="18" from-port="1" to-layer="19" to-port="0" />
		<edge from-layer="19" from-port="1" to-layer="20" to-port="0" />
		<edge from-layer="20" from-port="1" to-layer="21" to-port="0" />
		<edge from-layer="21" from-port="1" to-layer="22" to-port="1" />
		<edge from-layer="22" from-port="2" to-layer="136" to-port="0" />
		<edge from-layer="22" from-port="2" to-layer="134" to-port="0" />
		<edge from-layer="22" from-port="2" to-layer="23" to-port="0" />
		<edge from-layer="23" from-port="1" to-layer="24" to-port="0" />
		<edge from-layer="24" from-port="1" to-layer="25" to-port="0" />
		<edge from-layer="25" from-port="1" to-layer="26" to-port="0" />
		<edge from-layer="26" from-port="1" to-layer="27" to-port="0" />
		<edge from-layer="27" from-port="1" to-layer="28" to-port="0" />
		<edge from-layer="28" from-port="1" to-layer="35" to-port="0" />
		<edge from-layer="28" from-port="1" to-layer="29" to-port="0" />
		<edge from-layer="29" from-port="1" to-layer="30" to-port="0" />
		<edge from-layer="30" from-port="1" to-layer="31" to-port="0" />
		<edge from-layer="31" from-port="1" to-layer="32" to-port="0" />
		<edge from-layer="32" from-port="1" to-layer="33" to-port="0" />
		<edge from-layer="33" from-port="1" to-layer="34" to-port="0" />
		<edge from-layer="34" from-port="1" to-layer="35" to-port="1" />
		<edge from-layer="35" from-port="2" to-layer="42" to-port="0" />
		<edge from-layer="35" from-port="2" to-layer="36" to-port="0" />
		<edge from-layer="36" from-port="1" to-layer="37" to-port="0" />
		<edge from-layer="37" from-port="1" to-layer="38" to-port="0" />
		<edge from-layer="38" from-port="1" to-layer="39" to-port="0" />
		<edge from-layer="39" from-port="1" to-layer="40" to-port="0" />
		<edge from-layer="40" from-port="1" to-layer="41" to-port="0" />
		<edge from-layer="41" from-port="1" to-layer="42" to-port="1" />
		<edge from-layer="42" from-port="2" to-layer="43" to-port="0" />
		<edge from-layer="43" from-port="1" to-layer="44" to-port="0" />
		<edge from-layer="44" from-port="1" to-layer="45" to-port="0" />
		<edge from-layer="45" from-port="1" to-layer="46" to-port="0" />
		<edge from-layer="46" from-port="1" to-layer="47" to-port="0" />
		<edge from-layer="47" from-port="1" to-layer="48" to-port="0" />
		<edge from-layer="48" from-port="1" to-layer="55" to-port="0" />
		<edge from-layer="48" from-port="1" to-layer="49" to-port="0" />
		<edge from-layer="49" from-port="1" to-layer="50" to-port="0" />
		<edge from-layer="50" from-port="1" to-layer="51" to-port="0" />
		<edge from-layer="51" from-port="1" to-layer="52" to-port="0" />
		<edge from-layer="52" from-port="1" to-layer="53" to-port="0" />
		<edge from-layer="53" from-port="1" to-layer="54" to-port="0" />
		<edge from-layer="54" from-port="1" to-layer="55" to-port="1" />
		<edge from-layer="55" from-port="2" to-layer="62" to-port="0" />
		<edge from-layer="55" from-port="2" to-layer="56" to-port="0" />
		<edge from-layer="56" from-port="1" to-layer="57" to-port="0" />
		<edge from-layer="57" from-port="1" to-layer="58" to-port="0" />
		<edge from-layer="58" from-port="1" to-layer="59" to-port="0" />
		<edge from-layer="59" from-port="1" to-layer="60" to-port="0" />
		<edge from-layer="60" from-port="1" to-layer="61" to-port="0" />
		<edge from-layer="61" from-port="1" to-layer="62" to-port="1" />
		<edge from-layer="62" from-port="2" to-layer="69" to-port="0" />
		<edge from-layer="62" from-port="2" to-layer="63" to-port="0" />
		<edge from-layer="63" from-port="1" to-layer="64" to-port="0" />
		<edge from-layer="64" from-port="1" to-layer="65" to-port="0" />
		<edge from-layer="65" from-port="1" to-layer="66" to-port="0" />
		<edge from-layer="66" from-port="1" to-layer="67" to-port="0" />
		<edge from-layer="67" from-port="1" to-layer="68" to-port="0" />
		<edge from-layer="68" from-port="1" to-layer="69" to-port="1" />
		<edge from-layer="69" from-port="2" to-layer="72" to-port="0" />
		<edge from-layer="69" from-port="2" to-layer="71" to-port="0" />
		<edge from-layer="69" from-port="2" to-layer="70" to-port="0" />
		<edge from-layer="70" from-port="1" to-layer="126" to-port="0" />
		<edge from-layer="71" from-port="1" to-layer="132" to-port="0" />
		<edge from-layer="72" from-port="1" to-layer="73" to-port="0" />
		<edge from-layer="73" from-port="1" to-layer="74" to-port="0" />
		<edge from-layer="74" from-port="1" to-layer="75" to-port="0" />
		<edge from-layer="75" from-port="1" to-layer="76" to-port="0" />
		<edge from-layer="76" from-port="1" to-layer="77" to-port="0" />
		<edge from-layer="77" from-port="1" to-layer="84" to-port="0" />
		<edge from-layer="77" from-port="1" to-layer="78" to-port="0" />
		<edge from-layer="78" from-port="1" to-layer="79" to-port="0" />
		<edge from-layer="79" from-port="1" to-layer="80" to-port="0" />
		<edge from-layer="80" from-port="1" to-layer="81" to-port="0" />
		<edge from-layer="81" from-port="1" to-layer="82" to-port="0" />
		<edge from-layer="82" from-port="1" to-layer="83" to-port="0" />
		<edge from-layer="83" from-port="1" to-layer="84" to-port="1" />
		<edge from-layer="84" from-port="2" to-layer="91" to-port="0" />
		<edge from-layer="84" from-port="2" to-layer="85" to-port="0" />
		<edge from-layer="85" from-port="1" to-layer="86" to-port="0" />
		<edge from-layer="86" from-port="1" to-layer="87" to-port="0" />
		<edge from-layer="87" from-port="1" to-layer="88" to-port="0" />
		<edge from-layer="88" from-port="1" to-layer="89" to-port="0" />
		<edge from-layer="89" from-port="1" to-layer="90" to-port="0" />
		<edge from-layer="90" from-port="1" to-layer="91" to-port="1" />
		<edge from-layer="91" from-port="2" to-layer="94" to-port="0" />
		<edge from-layer="91" from-port="2" to-layer="93" to-port="0" />
		<edge from-layer="91" from-port="2" to-layer="92" to-port="0" />
		<edge from-layer="92" from-port="1" to-layer="124" to-port="0" />
		<edge from-layer="93" from-port="1" to-layer="130" to-port="0" />
		<edge from-layer="94" from-port="1" to-layer="95" to-port="0" />
		<edge from-layer="95" from-port="1" to-layer="96" to-port="0" />
		<edge from-layer="96" from-port="1" to-layer="97" to-port="0" />
		<edge from-layer="97" from-port="1" to-layer="98" to-port="0" />
		<edge from-layer="98" from-port="1" to-layer="99" to-port="0" />
		<edge from-layer="99" from-port="1" to-layer="106" to-port="0" />
		<edge from-layer="99" from-port="1" to-layer="100" to-port="0" />
		<edge from-layer="100" from-port="1" to-layer="101" to-port="0" />
		<edge from-layer="101" from-port="1" to-layer="102" to-port="0" />
		<edge from-layer="102" from-port="1" to-layer="103" to-port="0" />
		<edge from-layer="103" from-port="1" to-layer="104" to-port="0" />
		<edge from-layer="104" from-port="1" to-layer="105" to-port="0" />
		<edge from-layer="105" from-port="1" to-layer="106" to-port="1" />
		<edge from-layer="106" from-port="2" to-layer="113" to-port="0" />
		<edge from-layer="106" from-port="2" to-layer="107" to-port="0" />
		<edge from-layer="107" from-port="1" to-layer="108" to-port="0" />
		<edge from-layer="108" from-port="1" to-layer="109" to-port="0" />
		<edge from-layer="109" from-port="1" to-layer="110" to-port="0" />
		<edge from-layer="110" from-port="1" to-layer="111" to-port="0" />
		<edge from-layer="111" from-port="1" to-layer="112" to-port="0" />
		<edge from-layer="112" from-port="1" to-layer="113" to-port="1" />
		<edge from-layer="113" from-port="2" to-layer="114" to-port="0" />
		<edge from-layer="114" from-port="1" to-layer="115" to-port="0" />
		<edge from-layer="115" from-port="1" to-layer="116" to-port="0" />
		<edge from-layer="116" from-port="1" to-layer="117" to-port="0" />
		<edge from-layer="117" from-port="1" to-layer="118" to-port="0" />
		<edge from-layer="118" from-port="1" to-layer="119" to-port="0" />
		<edge from-layer="119" from-port="1" to-layer="120" to-port="0" />
		<edge from-layer="120" from-port="1" to-layer="121" to-port="0" />
		<edge from-layer="121" from-port="1" to-layer="128" to-port="0" />
		<edge from-layer="121" from-port="1" to-layer="122" to-port="0" />
		<edge from-layer="122" from-port="1" to-layer="123" to-port="0" />
		<edge from-layer="123" from-port="1" to-layer="124" to-port="1" />
		<edge from-layer="124" from-port="2" to-layer="125" to-port="0" />
		<edge from-layer="125" from-port="1" to-layer="126" to-port="1" />
		<edge from-layer="126" from-port="2" to-layer="127" to-port="0" />
		<edge from-layer="127" from-port="1" to-layer="135" to-port="1" />
		<edge from-layer="128" from-port="1" to-layer="129" to-port="0" />
		<edge from-layer="129" from-port="1" to-layer="130" to-port="1" />
		<edge from-layer="130" from-port="2" to-layer="131" to-port="0" />
		<edge from-layer="131" from-port="1" to-layer="132" to-port="1" />
		<edge from-layer="132" from-port="2" to-layer="133" to-port="0" />
		<edge from-layer="133" from-port="1" to-layer="137" to-port="1" />
		<edge from-layer="134" from-port="1" to-layer="135" to-port="0" />
		<edge from-layer="136" from-port="1" to-layer="137" to-port="0" />
	</edges>
	<statistics>
		<layer>
			<name>Mul1_8714/Fused_Mul_/FusedScaleShift_</name>
			<min>-2.696225, -3.265921, -3.531960</min>
			<max>3.862407, 4.120574, 4.179833</max>
		</layer>
		<layer>
			<name>Placeholder</name>
			<min>0.000000, 0.000000, 0.000000</min>
			<max>255.000000, 255.000000, 255.000000</max>
		</layer>
		<layer>
			<name>model/add/add</name>
			<min>… -7.454696</min>
			<max>… 7.631132</max>
		</layer>
		<layer>
			<name>model/add_1/add</name>
			<min>… -7.504758</min>
			<max>… 9.189963</max>
		</layer>
		<layer>
			<name>model/add_10/add</name>
			<min>-5.447262, -6.623820</min>
			<max>6.624728, 5.447616</max>
		</layer>
		<layer>
			<name>model/add_11/add</name>
			<min>-5.944443, -6.968825</min>
			<max>6.969916, 5.944890</max>
		</layer>
		<layer>
			<name>model/add_12/add</name>
			<min>-6.437675, -4.777216, -6.472743, -4.605321, -6.342474, -4.436027, -5.785038, -2.802982, -5.737887, -2.598732, -5.844316, -3.302781, -5.944409, -3.373956, -5.890933, -3.482228</min>
			<max>4.777233, 6.437712, 4.605350, 6.472788, 4.436034, 6.342527, 2.802993, 5.785083, 2.598734, 5.737924, 3.302794, 5.844359, 3.373967, 5.944452, 3.482238, 5.890966</max>
		</layer>
		<layer>
			<name>model/add_13/add</name>
			<min>-7.302704, -5.073593, -7.591925, -4.866462, -7.435345, -4.688255, -6.696196, -3.832064, -6.681983, -3.863959, -6.806036, -3.982295, -6.993190, -3.993597, -6.810218, -4.027271</min>
			<max>5.073604, 7.302741, 4.866481, 7.591968, 4.688271, 7.435403, 3.832088, 6.696249, 3.863968, 6.682028, 3.982326, 6.806086, 3.993596, 6.993237, 4.027273, 6.810271</max>
		</layer>
		<layer>
			<name>model/add_2/add</name>
			<min>… -9.391280</min>
			<max>… 11.215896</max>
		</layer>
		<layer>
			<name>model/add_3/add</name>
			<min>… -2.956897</min>
			<max>… 3.487924</max>
		</layer>
		<layer>
			<name>model/add_4/add</name>
			<min>… -5.061762</min>
			<max>… 5.941469</max>
		</layer>
		<layer>
			<name>model/add_5/add</name>
			<min>… -7.404134</min>
			<max>… 8.550490</max>
		</layer>
		<layer>
			<name>model/add_6/add</name>
			<min>… -3.958809</min>
			<max>… 3.092862</max>
		</layer>
		<layer>
			<name>model/add_7/add</name>
			<min>… -5.490253</min>
			<max>… 4.519203</max>
		</layer>
		<layer>
			<name>model/add_8/add</name>
			<min>… -5.551199</min>
			<max>… 6.246805</max>
		</layer>
		<layer>
			<name>model/add_9/add</name>
			<min>… -8.739607</min>
			<max>… 8.127127</max>
		</layer>
		<layer>
			<name>model/conv2d/Conv2D</name>
			<min>… -3.427429</min>
			<max>… 7.341113</max>
		</layer>
		<layer>
			<name>model/conv2d_1/Conv2D</name>
			<min>… -5.501414</min>
			<max>… 8.200561</max>
		</layer>
		<layer>
			<name>model/conv2d_10/Conv2D</name>
			<min>… -7.239445</min>
			<max>… 4.866882</max>
		</layer>
		<layer>
			<name>model/conv2d_11/Conv2D</name>
			<min>… -6.084654</min>
			<max>… 4.453070</max>
		</layer>
		<layer>
			<name>model/conv2d_12/Conv2D</name>
			<min>… -6.246823</min>
			<max>… 5.777880</max>
		</layer>
		<layer>
			<name>model/conv2d_13/Conv2D</name>
			<min>… -6.734802</min>
			<max>… 5.493946</max>
		</layer>
		<layer>
			<name>model/conv2d_14/Conv2D</name>
			<min>… -2.253101</min>
			<max>… 1.813945</max>
		</layer>
		<layer>
			<name>model/conv2d_15/Conv2D</name>
			<min>… -5.054912</min>
			<max>… 4.949127</max>
		</layer>
		<layer>
			<name>model/conv2d_16/Conv2D</name>
			<min>… -1.896061</min>
			<max>… 2.433752</max>
		</layer>
		<layer>
			<name>model/conv2d_17/Conv2D</name>
			<min>… -6.460644</min>
			<max>… 7.611932</max>
		</layer>
		<layer>
			<name>model/conv2d_18/Conv2D</name>
			<min>… -3.750108</min>
			<max>… 4.086620</max>
		</layer>
		<layer>
			<name>model/conv2d_19/Conv2D</name>
			<min>… -5.248313</min>
			<max>… 5.854415</max>
		</layer>
		<layer>
			<name>model/conv2d_2/Conv2D</name>
			<min>-12.723095, -14.994952, -0.000611, -13.136055, -12.674966, -17.498142, -15.541319, -13.930748, -12.472103, -14.190490, -8.565561, -11.160349, -13.621491, -13.391480, -13.664790, -15.282052</min>
			<max>14.519650, 19.851732, 0.005917, 14.979457, 22.779125, 8.059316, 11.932863, 17.649279, 8.013992, 9.834995, 15.667467, 18.354031, 16.077297, 15.134302, 14.077517, 11.688433</max>
		</layer>
		<layer>
			<name>model/conv2d_20/Conv2D</name>
			<min>… -5.116034</min>
			<max>… 6.511181</max>
		</layer>
		<layer>
			<name>model/conv2d_21/Conv2D</name>
			<min>… -6.636222</min>
			<max>… 9.247897</max>
		</layer>
		<layer>
			<name>model/conv2d_22/Conv2D</name>
			<min>… -3.200718</min>
			<max>… 2.639858</max>
		</layer>
		<layer>
			<name>model/conv2d_23/Conv2D</name>
			<min>… -5.119535</min>
			<max>… 6.259904</max>
		</layer>
		<layer>
			<name>model/conv2d_24/Conv2D</name>
			<min>… -2.580994</min>
			<max>… 1.858747</max>
		</layer>
		<layer>
			<name>model/conv2d_25/Conv2D</name>
			<min>… -6.645047</min>
			<max>… 6.270355</max>
		</layer>
		<layer>
			<name>model/conv2d_26/Conv2D</name>
			<min>… -4.246492</min>
			<max>… 4.069269</max>
		</layer>
		<layer>
			<name>model/conv2d_27/Conv2D</name>
			<min>… -5.739348</min>
			<max>… 5.850992</max>
		</layer>
		<layer>
			<name>model/conv2d_28/Conv2D</name>
			<min>… -3.539467</min>
			<max>… 4.341370</max>
		</layer>
		<layer>
			<name>model/conv2d_29/Conv2D</name>
			<min>… -5.344838</min>
			<max>… 6.659951</max>
		</layer>
		<layer>
			<name>model/conv2d_3/Conv2D</name>
			<min>… -4.838574</min>
			<max>… 8.821326</max>
		</layer>
		<layer>
			<name>model/conv2d_30/Conv2D</name>
			<min>… -4.832466</min>
			<max>… 4.817548</max>
		</layer>
		<layer>
			<name>model/conv2d_31/Conv2D</name>
			<min>… -6.023206</min>
			<max>… 4.106796</max>
		</layer>
		<layer>
			<name>model/conv2d_32/Conv2D</name>
			<min>… -6.327760</min>
			<max>… 5.461409</max>
		</layer>
		<layer>
			<name>model/conv2d_33/Conv2D</name>
			<min>… -5.606512</min>
			<max>… 4.666451</max>
		</layer>
		<layer>
			<name>model/conv2d_34/Conv2D</name>
			<min>… -11.530059</min>
			<max>… 1.658492</max>
		</layer>
		<layer>
			<name>model/conv2d_35/Conv2D</name>
			<min>… -5.413697</min>
			<max>… 4.601303</max>
		</layer>
		<layer>
			<name>model/conv2d_36/Conv2D</name>
			<min>-4.476757, -5.948991</min>
			<max>5.949828, 4.477059</max>
		</layer>
		<layer>
			<name>model/conv2d_37/Conv2D</name>
			<min>-2.697549, -2.918655</min>
			<max>2.918812, 2.697640</max>
		</layer>
		<layer>
			<name>model/conv2d_38/Conv2D</name>
			<min>-3.231000, -2.393260</min>
			<max>2.393397, 3.231103</max>
		</layer>
		<layer>
			<name>model/conv2d_39/Conv2D</name>
			<min>-0.681145, -0.372596</min>
			<max>0.372749, 0.681270</max>
		</layer>
		<layer>
			<name>model/conv2d_4/Conv2D</name>
			<min>… -5.900519</min>
			<max>… 2.881242</max>
		</layer>
		<layer>
			<name>model/conv2d_40/Conv2D</name>
			<min>-5.355121, -3.770431, -5.676183, -3.822557, -5.589565, -3.666853, -4.622650, -2.393316, -4.917506, -2.337238, -4.884544, -3.113824, -4.897086, -3.053254, -4.893290, -3.015300</min>
			<max>3.770438, 5.355158, 3.822577, 5.676217, 3.666863, 5.589599, 2.393334, 4.622678, 2.337270, 4.917547, 3.113833, 4.884580, 3.053286, 4.897118, 3.015316, 4.893329</max>
		</layer>
		<layer>
			<name>model/conv2d_41/Conv2D</name>
			<min>-3.031889, -2.468668, -3.277000, -2.638788, -3.046577, -2.590408, -2.882231, -1.712046, -2.935962, -1.777625, -2.790630, -1.964728, -2.840324, -2.043238, -2.869241, -2.016996</min>
			<max>2.468669, 3.031887, 2.638787, 3.277008, 2.590405, 3.046588, 1.712047, 2.882238, 1.777613, 2.935983, 1.964739, 2.790646, 2.043242, 2.840343, 2.016982, 2.869263</max>
		</layer>
		<layer>
			<name>model/conv2d_42/Conv2D</name>
			<min>-3.892433, -3.288903, -3.546459, -3.421153, -3.870654, -3.266381, -3.666986, -3.233488, -3.741460, -3.083273, -4.070752, -2.939620, -3.729783, -2.988478, -3.903193, -2.843960</min>
			<max>3.288898, 3.892435, 3.421159, 3.546466, 3.266380, 3.870661, 3.233511, 3.666999, 3.083275, 3.741487, 2.939648, 4.070757, 2.988485, 3.729794, 2.843941, 3.903220</max>
		</layer>
		<layer>
			<name>model/conv2d_43/Conv2D</name>
			<min>-1.622083, -5.873273, -1.493318, -5.042170, -1.585967, -7.081301, -1.442749, -5.193043, -1.436196, -6.041118, -1.612612, -6.773788, -1.501044, -5.780862, -1.563816, -8.213107</min>
			<max>5.873315, 1.622083, 5.042179, 1.493316, 7.081336, 1.585969, 5.193051, 1.442738, 6.041153, 1.436211, 6.773818, 1.612606, 5.780890, 1.501044, 8.213157, 1.563818</max>
		</layer>
		<layer>
			<name>model/conv2d_5/Conv2D</name>
			<min>… -4.070692</min>
			<max>… 1.167289</max>
		</layer>
		<layer>
			<name>model/conv2d_6/Conv2D</name>
			<min>… -4.326985</min>
			<max>… 7.238597</max>
		</layer>
		<layer>
			<name>model/conv2d_7/Conv2D</name>
			<min>… -4.526269</min>
			<max>… 8.537605</max>
		</layer>
		<layer>
			<name>model/conv2d_8/Conv2D</name>
			<min>… -4.292380</min>
			<max>… 9.001766</max>
		</layer>
		<layer>
			<name>model/conv2d_9/Conv2D</name>
			<min>… -4.409759</min>
			<max>… 5.425914</max>
		</layer>
		<layer>
			<name>model/link_logits_/add</name>
			<min>-7.509833, -7.928827, -7.932132, -8.222162, -7.554019, -8.073821, -6.955032, -7.098783, -7.070472, -7.941657, -6.985259, -7.659210, -7.346131, -7.405661, -7.078192, -8.832575</min>
			<max>7.928886, 7.509878, 8.222181, 7.932180, 8.073866, 7.554061, 7.098810, 6.955095, 7.941705, 7.070533, 7.659254, 6.985306, 7.405693, 7.346179, 8.832642, 7.078246</max>
		</layer>
		<layer>
			<name>model/re_lu/Relu6</name>
			<min>… 0.000000</min>
			<max>… 6.000000</max>
		</layer>
		<layer>
			<name>model/re_lu_1/Relu6</name>
			<min>… 0.000000</min>
			<max>… 6.000000</max>
		</layer>
		<layer>
			<name>model/re_lu_10/Relu6</name>
			<min>… 0.000000</min>
			<max>… 4.554640</max>
		</layer>
		<layer>
			<name>model/re_lu_11/Relu6</name>
			<min>… 0.000000</min>
			<max>… 4.453070</max>
		</layer>
		<layer>
			<name>model/re_lu_12/Relu6</name>
			<min>… 0.000000</min>
			<max>… 5.615318</max>
		</layer>
		<layer>
			<name>model/re_lu_13/Relu6</name>
			<min>… 0.000000</min>
			<max>… 5.493946</max>
		</layer>
		<layer>
			<name>model/re_lu_14/Relu6</name>
			<min>… 0.000000</min>
			<max>… 6.000000</max>
		</layer>
		<layer>
			<name>model/re_lu_15/Relu6</name>
			<min>… 0.000000</min>
			<max>… 4.949127</max>
		</layer>
		<layer>
			<name>model/re_lu_16/Relu6</name>
			<min>… 0.000000</min>
			<max>… 4.437168</max>
		</layer>
		<layer>
			<name>model/re_lu_17/Relu6</name>
			<min>… 0.000000</min>
			<max>… 6.000000</max>
		</layer>
		<layer>
			<name>model/re_lu_18/Relu6</name>
			<min>… 0.000000</min>
			<max>… 4.944800</max>
		</layer>
		<layer>
			<name>model/re_lu_19/Relu6</name>
			<min>… 0.000000</min>
			<max>… 5.854415</max>
		</layer>
		<layer>
			<name>model/re_lu_2/Relu6</name>
			<min>… 0.000000</min>
			<max>… 6.000000</max>
		</layer>
		<layer>
			<name>model/re_lu_20/Relu6</name>
			<min>… 0.000000</min>
			<max>… 5.962554</max>
		</layer>
		<layer>
			<name>model/re_lu_21/Relu6</name>
			<min>… 0.000000</min>
			<max>… 6.000000</max>
		</layer>
		<layer>
			<name>model/re_lu_22/Relu6</name>
			<min>… 0.000000</min>
			<max>… 6.000000</max>
		</layer>
		<layer>
			<name>model/re_lu_23/Relu6</name>
			<min>… 0.000000</min>
			<max>… 6.000000</max>
		</layer>
		<layer>
			<name>model/re_lu_24/Relu6</name>
			<min>… 0.000000</min>
			<max>… 3.660277</max>
		</layer>
		<layer>
			<name>model/re_lu_25/Relu6</name>
			<min>… 0.000000</min>
			<max>… 6.000000</max>
		</layer>
		<layer>
			<name>model/re_lu_26/Relu6</name>
			<min>… 0.000000</min>
			<max>… 6.000000</max>
		</layer>
		<layer>
			<name>model/re_lu_27/Relu6</name>
			<min>… 0.000000</min>
			<max>… 5.850992</max>
		</layer>
		<layer>
			<name>model/re_lu_28/Relu6</name>
			<min>… 0.000000</min>
			<max>… 5.284241</max>
		</layer>
		<layer>
			<name>model/re_lu_29/Relu6</name>
			<min>… 0.000000</min>
			<max>… 6.000000</max>
		</layer>
		<layer>
			<name>model/re_lu_3/Relu6</name>
			<min>… 0.000000</min>
			<max>… 6.000000</max>
		</layer>
		<layer>
			<name>model/re_lu_30/Relu6</name>
			<min>… 0.000000</min>
			<max>… 3.931024</max>
		</layer>
		<layer>
			<name>model/re_lu_31/Relu6</name>
			<min>… 0.000000</min>
			<max>… 4.106796</max>
		</layer>
		<layer>
			<name>model/re_lu_32/Relu6</name>
			<min>… 0.000000</min>
			<max>… 4.419195</max>
		</layer>
		<layer>
			<name>model/re_lu_33/Relu6</name>
			<min>… 0.000000</min>
			<max>… 4.666451</max>
		</layer>
		<layer>
			<name>model/re_lu_34/Relu6</name>
			<min>… 0.000000</min>
			<max>… 6.000000</max>
		</layer>
		<layer>
			<name>model/re_lu_35/Relu6</name>
			<min>… 0.000000</min>
			<max>… 4.601303</max>
		</layer>
		<layer>
			<name>model/re_lu_4/Relu6</name>
			<min>… 0.000000</min>
			<max>… 3.740203</max>
		</layer>
		<layer>
			<name>model/re_lu_5/Relu6</name>
			<min>… 0.000000</min>
			<max>… 1.167289</max>
		</layer>
		<layer>
			<name>model/re_lu_6/Relu6</name>
			<min>… 0.000000</min>
			<max>… 5.966836</max>
		</layer>
		<layer>
			<name>model/re_lu_7/Relu6</name>
			<min>… 0.000000</min>
			<max>… 6.000000</max>
		</layer>
		<layer>
			<name>model/re_lu_8/Relu6</name>
			<min>… 0.000000</min>
			<max>… 5.002774</max>
		</layer>
		<layer>
			<name>model/re_lu_9/Relu6</name>
			<min>… 0.000000</min>
			<max>… 5.425914</max>
		</layer>
		<layer>
			<name>model/segm_logits/add</name>
			<min>-6.018569, -7.074166</min>
			<max>7.076154, 6.019170</max>
		</layer>
		<layer>
			<name>model/separable_conv2d/separable_conv2d</name>
			<min>… -13.358812</min>
			<max>… 11.552041</max>
		</layer>
		<layer>
			<name>model/separable_conv2d/separable_conv2d/depthwise</name>
			<min>… -9.573557</min>
			<max>… 8.420786</max>
		</layer>
		<layer>
			<name>model/separable_conv2d_1/separable_conv2d</name>
			<min>… -7.441856</min>
			<max>… 3.740203</max>
		</layer>
		<layer>
			<name>model/separable_conv2d_1/separable_conv2d/depthwise</name>
			<min>… -1.166952</min>
			<max>… 10.016278</max>
		</layer>
		<layer>
			<name>model/separable_conv2d_10/separable_conv2d</name>
			<min>… -9.630321</min>
			<max>… 7.119602</max>
		</layer>
		<layer>
			<name>model/separable_conv2d_10/separable_conv2d/depthwise</name>
			<min>… -5.252416</min>
			<max>… 0.070177</max>
		</layer>
		<layer>
			<name>model/separable_conv2d_11/separable_conv2d</name>
			<min>… -7.393148</min>
			<max>… 3.660277</max>
		</layer>
		<layer>
			<name>model/separable_conv2d_11/separable_conv2d/depthwise</name>
			<min>… -2.279590</min>
			<max>… 1.444918</max>
		</layer>
		<layer>
			<name>model/separable_conv2d_12/separable_conv2d</name>
			<min>… -10.835667</min>
			<max>… 6.899207</max>
		</layer>
		<layer>
			<name>model/separable_conv2d_12/separable_conv2d/depthwise</name>
			<min>… -1.980237</min>
			<max>… 1.970857</max>
		</layer>
		<layer>
			<name>model/separable_conv2d_13/separable_conv2d</name>
			<min>… -7.397926</min>
			<max>… 5.284241</max>
		</layer>
		<layer>
			<name>model/separable_conv2d_13/separable_conv2d/depthwise</name>
			<min>… 0.000000</min>
			<max>… 2.581135</max>
		</layer>
		<layer>
			<name>model/separable_conv2d_14/separable_conv2d</name>
			<min>… -5.369660</min>
			<max>… 3.931024</max>
		</layer>
		<layer>
			<name>model/separable_conv2d_14/separable_conv2d/depthwise</name>
			<min>… -1.219396</min>
			<max>… 1.464273</max>
		</layer>
		<layer>
			<name>model/separable_conv2d_15/separable_conv2d</name>
			<min>… -7.113976</min>
			<max>… 4.419195</max>
		</layer>
		<layer>
			<name>model/separable_conv2d_15/separable_conv2d/depthwise</name>
			<min>… -1.210102</min>
			<max>… 0.279525</max>
		</layer>
		<layer>
			<name>model/separable_conv2d_16/separable_conv2d</name>
			<min>… -5.089635</min>
			<max>… 7.532464</max>
		</layer>
		<layer>
			<name>model/separable_conv2d_16/separable_conv2d/depthwise</name>
			<min>… -0.092959</min>
			<max>… 2.521834</max>
		</layer>
		<layer>
			<name>model/separable_conv2d_2/separable_conv2d</name>
			<min>… -10.035248</min>
			<max>… 5.966836</max>
		</layer>
		<layer>
			<name>model/separable_conv2d_2/separable_conv2d/depthwise</name>
			<min>… -0.058594</min>
			<max>… 1.217434</max>
		</layer>
		<layer>
			<name>model/separable_conv2d_3/separable_conv2d</name>
			<min>… -5.479229</min>
			<max>… 5.002774</max>
		</layer>
		<layer>
			<name>model/separable_conv2d_3/separable_conv2d/depthwise</name>
			<min>… -4.658292</min>
			<max>… 5.707248</max>
		</layer>
		<layer>
			<name>model/separable_conv2d_4/separable_conv2d</name>
			<min>… -6.240057</min>
			<max>… 4.554640</max>
		</layer>
		<layer>
			<name>model/separable_conv2d_4/separable_conv2d/depthwise</name>
			<min>… -1.810098</min>
			<max>… 2.517419</max>
		</layer>
		<layer>
			<name>model/separable_conv2d_5/separable_conv2d</name>
			<min>… -8.026718</min>
			<max>… 5.615318</max>
		</layer>
		<layer>
			<name>model/separable_conv2d_5/separable_conv2d/depthwise</name>
			<min>… 0.000000</min>
			<max>… 3.377351</max>
		</layer>
		<layer>
			<name>model/separable_conv2d_6/separable_conv2d</name>
			<min>… -8.628367</min>
			<max>… 7.205959</max>
		</layer>
		<layer>
			<name>model/separable_conv2d_6/separable_conv2d/depthwise</name>
			<min>… -1.349426</min>
			<max>… 4.016251</max>
		</layer>
		<layer>
			<name>model/separable_conv2d_7/separable_conv2d</name>
			<min>… -9.689830</min>
			<max>… 4.437168</max>
		</layer>
		<layer>
			<name>model/separable_conv2d_7/separable_conv2d/depthwise</name>
			<min>… -0.095015</min>
			<max>… 2.774807</max>
		</layer>
		<layer>
			<name>model/separable_conv2d_8/separable_conv2d</name>
			<min>… -11.825178</min>
			<max>… 4.944800</max>
		</layer>
		<layer>
			<name>model/separable_conv2d_8/separable_conv2d/depthwise</name>
			<min>… -4.086786</min>
			<max>… 0.371001</max>
		</layer>
		<layer>
			<name>model/separable_conv2d_9/separable_conv2d</name>
			<min>… -12.353516</min>
			<max>… 5.962554</max>
		</layer>
		<layer>
			<name>model/separable_conv2d_9/separable_conv2d/depthwise</name>
			<min>… -1.421381</min>
			<max>… 2.028580</max>
		</layer>
		<layer>
			<name>model/up_sampling2d/ResizeBilinear</name>
			<min>-4.476757, -5.948991</min>
			<max>5.949828, 4.477059</max>
		</layer>
		<layer>
			<name>model/up_sampling2d_1/ResizeBilinear</name>
			<min>-5.447262, -6.623820</min>
			<max>6.624728, 5.447616</max>
		</layer>
		<layer>
			<name>model/up_sampling2d_2/ResizeBilinear</name>
			<min>-5.944443, -6.968825</min>
			<max>6.969916, 5.944890</max>
		</layer>
		<layer>
			<name>model/up_sampling2d_3/ResizeBilinear</name>
			<min>-5.355121, -3.770431, -5.676183, -3.822557, -5.589565, -3.666853, -4.622650, -2.393316, -4.917506, -2.337238, -4.884544, -3.113824, -4.897086, -3.053254, -4.893290, -3.015300</min>
			<max>3.770438, 5.355158, 3.822577, 5.676217, 3.666863, 5.589599, 2.393334, 4.622678, 2.337270, 4.917547, 3.113833, 4.884580, 3.053286, 4.897118, 3.015316, 4.893329</max>
		</layer>
		<layer>
			<name>model/up_sampling2d_4/ResizeBilinear</name>
			<min>-6.437675, -4.777216, -6.472743, -4.605321, -6.342474, -4.436027, -5.785038, -2.802982, -5.737887, -2.598732, -5.844316, -3.302781, -5.944409, -3.373956, -5.890933, -3.482228</min>
			<max>4.777233, 6.437712, 4.605350, 6.472788, 4.436034, 6.342527, 2.802993, 5.785083, 2.598734, 5.737924, 3.302794, 5.844359, 3.373967, 5.944452, 3.482238, 5.890966</max>
		</layer>
		<layer>
			<name>model/up_sampling2d_5/ResizeBilinear</name>
			<min>-7.302704, -5.073593, -7.591925, -4.866462, -7.435345, -4.688255, -6.696196, -3.832064, -6.681983, -3.863959, -6.806036, -3.982295, -6.993190, -3.993597, -6.810218, -4.027271</min>
			<max>5.073604, 7.302741, 4.866481, 7.591968, 4.688271, 7.435403, 3.832088, 6.696249, 3.863968, 6.682028, 3.982326, 6.806086, 3.993596, 6.993237, 4.027273, 6.810271</max>
		</layer>
	</statistics>
</net>
